results/run02/RollerBall/checkpoint.pt (torch, 447522 bytes, 36 tensors)

network_body._body_endoder.seq_layers.0.weight f4 [128, 8]
000000 d9 51 23 3e 79 46 45 3e 94 c7 de 3d 98 20 6d 3e
       0.15949191 0.19265164 0.1087791 0.23156965
000010 a1 30 f4 3e 87 ad 9e 3e b4 34 0d 3d 78 1f 7f bd
       0.4769335 0.30991766 0.03447409 -0.06228587
000020 45 5f 4e bf 64 74 60 bd 92 9c 38 3f 1c 4c 39 be
       -0.8061412 -0.0547985 0.7211391 -0.1809544
000030 c3 45 f1 3e d9 2b 74 3e 09 4b 27 be 89 e3 4c 3f
       0.47123536 0.23844852 -0.16337217 0.8003469
000040 07 5d ce 3e 2d a5 7f 3e 5f 41 9c bd 6c 8e df 3e
       0.4030535 0.24965353 -0.07629656 0.43663347
000050 6e ea b6 3e 93 fd dc bd 68 7f 39 3e 3f b7 dc 3e
       0.3572573 -0.10790553 0.18115008 0.43108556
000060 8e c6 68 bd 0b 55 81 3e 1c 2a 7d 3e ea a8 3e bf
       -0.05682998 0.25260195 0.24723095 -0.7447649
000070 b0 5c 8d 3e fb 33 e3 be a6 72 09 3e 8f 22 b5 3d
       0.27609777 -0.44375595 0.13422641 0.08844482
000080 79 10 10 3f 52 53 54 bf f9 8c 9a 3e 93 f5 99 3e
       0.56275135 -0.82939637 0.3018568 0.3007017
000090 da 97 70 bd 58 15 b6 be 33 74 f0 be b6 b7 b1 bd
       -0.058738567 -0.3556316 -0.46963653 -0.08677618
0000a0 f6 4e 23 3d 02 cd 2c 3f 90 f6 ef 3d 16 8b c4 bd
       0.039870225 0.6750032 0.1171695 -0.09596841
0000b0 c3 81 93 3c 57 80 58 be 32 37 64 3e 26 ba 42 3c
       0.018006211 -0.21142708 0.2228668 0.011885202
0000c0 43 cd 62 3e 75 0c 84 be bd 80 89 bd 87 8c ac 3e
       0.22148614 -0.25790754 -0.06714008 0.33700964
0000d0 bb 35 9c 3d 18 53 de be 27 cf 9b be f0 af db be
       0.07627436 -0.4342277 -0.30431482 -0.42907667
0000e0 7a 2b 39 be 2a 45 01 3f 8c ee 05 bf 28 a1 c3 3e
       -0.18082991 0.5049616 -0.5231712 0.3820889
0000f0 46 56 76 3e dc 42 13 3e 6e 22 8b 3e 4d 48 33 3f
       0.24056348 0.14380974 0.27174705 0.700322
000100 31 01 74 bb e0 45 45 3e e7 77 c8 be 24 6c 62 3f
       -0.0037232155 0.19264936 -0.39153978 0.8844626
000110 5b c6 ff be d3 e4 66 bc 27 7b 14 3e 74 cb ba 3d
       -0.4995602 -0.014092642 0.14500104 0.09120837
000120 de fe a4 be e2 fb 53 bd 21 12 84 3d d4 26 03 3f
       -0.32225698 -0.051753886 0.0644877 0.5123112
000130 a8 56 2d bf 46 a7 de bd de a9 c0 be 3b 2e b2 be
       -0.6771035 -0.108717486 -0.37629598 -0.34800896
000140 dc 83 0e 3f 61 25 4a 3e 03 f0 cb be 04 73 79 bf
       0.5566995 0.19740821 -0.39831552 -0.97441125
000150 c8 e8 65 be d3 f8 27 be 3f f8 ed 3c 28 df 14 3f
       -0.2245208 -0.16403513 0.029049037 0.5815301
000160 37 45 38 3f 40 f3 9a be 10 23 b0 be d8 50 2c 3e
       0.71980613 -0.3026371 -0.3440175 0.16827714
000170 4d 80 67 be 94 3c 65 3d 44 07 4a 3e 4a 05 6d 3f
       -0.22607537 0.055965975 0.19729334 0.92586195
000180 f4 03 b5 3c 4b f1 cd bd 54 c7 1d 3f d6 fb 0a bf
       0.022096612 -0.100557886 0.61632276 -0.5429052
000190 68 48 45 3e 9d 69 d2 3e 84 88 fd 3e f9 9a ac 3e
       0.19265902 0.41096202 0.49518216 0.33711985
0001a0 d1 cd f8 be ae e8 b5 bc f6 e9 40 be 50 3f c8 be
       -0.48594525 -0.022205677 -0.18839249 -0.39110804
0001b0 cf f7 99 3e 6c 36 28 3f 4a 89 e6 3e ce a9 9d 3e
       0.30071875 0.6570804 0.45026618 0.30793613
0001c0 bb 5f c4 3e b8 a4 a0 3e 8d 88 4f be c4 b2 bb be
       0.38354287 0.3137567 -0.20266934 -0.36659825
0001d0 99 a9 a5 3e 4f 63 cf bd e1 a0 86 be de ac b8 3d
       0.32355955 -0.101263635 -0.26294616 0.09017347
0001e0 2a bc 15 3d b6 e7 91 be 9b 01 8c bd 6a ff 83 3e
       0.0365564 -0.28497094 -0.06836244 0.25780803
0001f0 2e 83 19 3e ab 86 af bd 8d c2 31 3f f7 36 61 3d
       0.14991447 -0.08570608 0.69437486 0.05498406
000200 c1 4f 32 bf a6 69 b4 3d 4d 7e 82 3e 8e 47 15 be
       -0.69652945 0.08809213 0.25486985 -0.14578077
000210 c1 db ca 3e ac e5 2f bf 09 f6 d8 3e 11 ce 5f bd
       0.39620784 -0.68709826 0.4237521 -0.05463988
000220 cd 79 ae be f7 45 33 3e 50 80 77 3d 76 28 8b be
       -0.34077302 0.17507158 0.060425103 -0.27179307
000230 f7 25 84 3e e4 84 9c 3e 23 49 01 3f f7 e2 ba bd
       0.25810215 0.30570138 0.5050222 -0.09125321
000240 7d 59 73 3e b2 93 09 3d 82 6c 5a 3f e8 14 b3 3e
       0.23764606 0.03358812 0.8532182 0.34976888
000250 d9 f8 44 3e 6f 3c f6 bd 30 59 ac bd 84 6c b0 bd
       0.19235553 -0.120232455 -0.08415449 -0.08614448
000260 a5 da 26 be bc 30 15 bc 91 38 ca 3c 07 50 4f 3e
       -0.16294344 -0.009105857 0.024685176 0.20245372
000270 97 90 7e 3e 7a 3c 5f 3e c6 c9 9a 3e a4 39 76 be
       0.24859844 0.21800414 0.30232066 -0.24045426
000280 79 9b be 3e 14 de 18 be a0 df 81 be 68 5c 9e 3e
       0.3722799 -0.14928466 -0.25365925 0.30929875
000290 44 c9 18 3e 74 66 26 bf 29 14 15 bf b9 87 66 be
       0.14920527 -0.6500008 -0.58233887 -0.22512712
0002a0 57 d7 d8 3e 65 4a 2e bb 07 21 2b bf 30 df 14 be
       0.4235179 -0.0026594636 -0.6684727 -0.14538264
0002b0 69 4e 94 be 2c df bd 3e 28 59 dd b7 34 fb 10 be
       -0.28966072 0.3708433 -2.638677e-05 -0.14158326
0002c0 5c 72 00 bf bb 54 ec be c1 f2 96 3e 7d 6d 08 3f
       -0.501745 -0.46158394 0.29482082 0.53292066
0002d0 9a 8c 11 bf 8e fc 1a 3d be 9e a5 3d bc cd ad be
       -0.56855166 0.03783851 0.08086918 -0.33946025
0002e0 04 5c 8c be aa b9 b1 3e e5 53 b3 be af 72 d4 bd
       -0.27413952 0.34711963 -0.35024944 -0.10373437
0002f0 a0 f4 20 bf 10 03 02 bf ff b6 4e 3e 52 27 20 3e
       -0.6287327 -0.50785923 0.20186995 0.1564
000300 05 f0 76 be ec 93 07 3f 5f c8 10 bf 75 cc a6 3d
       -0.24114998 0.52960086 -0.5655574 0.08144466
000310 14 b7 d3 be 2f 92 fb 3d 9f a2 bf 3d c8 76 a1 be
       -0.41350615 0.12283742 0.093571894 -0.31535935
000320 ca db b1 be f0 ac 7f 3e d8 63 00 3f 6a ca 3e 3d
       -0.34737998 0.24968314 0.5015235 0.046579756
000330 b0 79 58 bf a9 38 45 be d8 21 4a bc 50 a4 b9 3d
       -0.8456068 -0.19259895 -0.012337171 0.09064543
000340 09 44 d1 3e 60 74 de 3e 00 90 e9 3e 98 c7 d4 3e
       0.4087222 0.43448162 0.45617676 0.41558528
000350 d8 36 29 3f fd 39 44 3e 90 a8 b4 be e7 e5 17 bf
       0.6609931 0.19162746 -0.35284853 -0.5933518
000360 20 2a df 3e ab 26 c6 bd c9 bb f8 bd cc 36 83 be
       0.43586826 -0.09675344 -0.12145192 -0.25627744
000370 d1 d4 e6 3d fc c7 4b bc c2 dd a4 3e 17 e0 2e 3e
       0.1127106 -0.012437817 0.32200438 0.17077671
000380 87 cc c7 be 33 36 96 3e ab b6 b1 3e 20 d4 53 be
       -0.3902323 0.29338226 0.34709677 -0.20686388
000390 82 93 c3 3c 3e bf 6e be f0 3b 06 bf e5 6c 5b 3f
       0.023874048 -0.2331514 -0.5243521 0.85713035
0003a0 09 00 38 3f 2b 65 10 bf 50 34 23 bf ac e5 22 3f
       0.71875054 -0.5640437 -0.637517 0.636317
0003b0 bf 12 55 3f 9d 50 3d 3e 2a e5 4b 3e e9 b1 6f bf
       0.8323173 0.18487783 0.19911638 -0.93630844
0003c0 1e a2 ca 3c 42 f1 39 be 16 aa 51 bc 0e 5d 34 be
       0.024735507 -0.18158439 -0.012796899 -0.17613623
0003d0 e5 34 b8 be ce ae 13 be 24 a2 eb bd 4a 46 1d be
       -0.35977855 -0.14422151 -0.11505535 -0.15358844
0003e0 d0 de a7 3e 9c cf 94 3e ea 51 d1 bc f5 71 a8 be
       0.3278718 0.29064643 -0.025551755 -0.32899442
0003f0 16 24 9b 3e d0 02 4c be 0a eb bc 3d d2 9c 11 3f
       0.3030097 -0.19922948 0.09224518 0.56879914

network_body._body_endoder.seq_layers.0.bias f4 [128]
000000 47 13 ec 3c 26 17 18 3b 35 e0 80 3c c1 bf 03 3b
       0.028817786 0.0023207157 0.01573191 0.0020103308
000010 0e 54 8f 3c 45 a1 4e bc 41 5e 58 bc 27 7b 33 3c
       0.017496135 -0.012611692 -0.013206066 0.010954655
000020 19 96 b7 3c 0b 16 85 bc 20 21 15 3c b4 f8 38 3b
       0.02241044 -0.016245862 0.009102136 0.002822441
000030 9f a6 c9 3b a9 42 93 bc 21 3e 33 3c b4 f5 90 3c
       0.006153896 -0.017976122 0.010940106 0.017695285
000040 ca 1d d1 3c 31 3d af 3c 91 9b 3c 3c 5c b3 1e ba
       0.0255269 0.021391483 0.011511699 -0.00060539483
000050 52 e2 47 bc c1 be e1 3c 11 a9 17 3d f8 e5 65 3c
       -0.012199955 0.027556779 0.03702647 0.01403188
000060 2c 70 f7 3c 29 99 4b 3c b1 fb da 3c c5 40 5d bc
       0.030204855 0.012426653 0.026731344 -0.013504212
000070 79 73 98 3c 63 25 00 3c 9b b2 10 bc 24 6b de bb
       0.01860975 0.007821414 -0.008831645 -0.0067876745
000080 e3 3f 4b bc 9d f5 e4 3c f6 85 3c 3c 38 5f e2 3c
       -0.0124053685 0.027949149 0.011506548 0.027633294
000090 74 fc fa bb ed e1 1d 3c 8c ff ba 3b c3 e6 13 3c
       -0.0076594893 0.009636384 0.005706733 0.009027186
0000a0 2b 6c 74 bc a5 7e 87 3c 5a f8 c1 3b cb 29 00 3c
       -0.014918367 0.016539881 0.0059194984 0.007822464
0000b0 7b 92 c4 ba 3e 09 d8 3c f8 af e3 bb fd bf 0f ba
       -0.0014997268 0.026371595 -0.0069484673 -0.00054836256
0000c0 86 a8 ec 3b 15 54 5b bb 7d b5 f1 3c a4 24 17 3d
       0.007222238 -0.0033466865 0.029505486 0.036900178
0000d0 25 4e 08 3c 47 92 9b 3b c8 34 78 3c a7 7a 56 3b
       0.008319412 0.004747662 0.015149303 0.0032726915
0000e0 f8 9a 90 3b 49 20 ec 3c 41 c6 84 bc a6 4a 2c bc
       0.004413005 0.028823989 -0.016207816 -0.010515844
0000f0 6c 5d ac 39 4f db 2e bd a7 bd 47 bc 95 c4 9a 3c
       0.00032876 -0.042689618 -0.012191213 0.018892566
000100 59 93 fe b9 13 0a 2c 3b fb d1 58 3c 2e d6 b7 bb
       -0.00048556438 0.0026251122 0.013233657 -0.005610249
000110 fc 6f e7 3c 86 02 23 ba 7c 45 98 3c 96 01 c5 3c
       0.02825164 -0.00062183326 0.01858782 0.024048608
000120 b2 aa c7 3c 63 05 39 3b 8d d4 9c bc 69 32 19 bc
       0.024373386 0.002823197 -0.01914432 -0.009350398
000130 a6 e2 b2 39 73 5b 9c bb f2 23 1b 3b 89 52 15 bb
       0.00034119672 -0.004771644 0.0023672548 -0.002278479
000140 c0 54 60 3c d5 3b 08 3d 18 14 96 bb d7 68 e3 3c
       0.013692081 0.033260185 -0.004580032 0.027759952
000150 54 a1 d9 3c b5 3c a3 bc d1 a1 ae 3c e0 4b 5c bc
       0.026566185 -0.019926408 0.021317394 -0.013445824
000160 0d 95 a0 3c 22 c1 5f bc cf e1 ea ba 8e 55 8d 39
       0.019602323 -0.013656886 -0.0017920079 0.0002695736
000170 fd 4e d8 bb 17 2d 42 3c 8a 07 e6 3b a1 c2 99 b9
       -0.006601213 0.011851571 0.0070199417 -0.00029327444
000180 b1 77 a1 bb 76 c7 91 3a 35 6d cf bc 74 d1 a8 bc
       -0.0049275984 0.0011122066 -0.025320629 -0.020607688
000190 4d 33 d1 39 1f 6a f2 bb bf 60 79 bc 26 f7 c1 3a
       0.00039901808 -0.0073979045 -0.01522082 0.0014798387
0001a0 c8 ed 21 3c 67 cb 20 3c 9a d3 3f 3d 0d e4 3d 3c
       0.009883352 0.00981412 0.04683266 0.011590016
0001b0 8c 4a 83 3a ec 22 75 3c b9 4c 5b 3c 7d 46 bf 3c
       0.0010016724 0.014961939 0.013384991 0.023349041
0001c0 cf 3e 0c bc 8c 6a 1e 3d 4b c0 89 3c 47 68 5e 3c
       -0.008559897 0.03867583 0.016815325 0.013574666
0001d0 9a ef 05 3c af 05 4d 3c da a3 8e 3c c6 29 91 3c
       0.008174801 0.012513562 0.017412115 0.017720114
0001e0 cd 61 8f 3c ab 74 ad 3c b9 88 91 3b a1 33 ab 3c
       0.01750269 0.021173796 0.0044413474 0.020898642
0001f0 33 76 e8 3c 49 91 6f 3c ac cd 91 3c c1 6f 95 bc
       0.028376674 0.014622041 0.017798267 -0.018241765

network_body._body_endoder.seq_layers.2.weight f4 [128, 128]
000000 9d 59 24 3e 59 92 8d bd 75 1c 1e bd 2f 64 cc bd
       0.1604981 -0.06912679 -0.038601357 -0.09980046
000010 48 8d 82 3d 51 07 b9 3c 2a 8b 23 3d 36 e5 c8 bd
       0.063746035 0.022586497 0.03992764 -0.098093435
000020 a4 3c f2 3d aa fc 66 3e bb 34 bb 3d 8e ff 0b 3d
       0.118279725 0.22557321 0.09140917 0.034179263
000030 a8 27 2d 3d b4 c7 75 bd ea 59 17 be 07 b5 d4 3d
       0.042274147 -0.060004905 -0.14780393 0.10386091
000040 45 1a 43 bd ac a6 da 3d e7 d3 1e bd ab 6d 9c bd
       -0.047632474 0.106763214 -0.038776305 -0.07638105
000050 56 30 ab bd b3 76 c7 bd d2 21 e6 bd a9 95 bd 3c
       -0.08358829 -0.09739437 -0.112369195 0.023142653
000060 65 ae 54 bd 0c 5c 95 3d 79 a3 a0 3d 2a 75 8f 3c
       -0.051924128 0.07292947 0.0784368 0.017511923
000070 82 8f a8 bd d4 25 5e 3d 5e 09 8b 3d 12 bc 73 be
       -0.08230497 0.054235294 0.06788896 -0.23802212
000080 df d0 96 3d e7 26 8d bd f7 29 a1 3c 67 55 e9 bc
       0.07364058 -0.06892186 0.01967333 -0.028483106
000090 21 02 32 be 7f 30 b8 3d 41 6c 8d bd a6 c7 1b bd
       -0.17383625 0.08993625 -0.069054134 -0.038032196
0000a0 3e 5b 53 3e ce 51 a5 3d 1c 63 ca bd e6 cf 2a 3e
       0.20640275 0.08072244 -0.09882185 0.1668087
0000b0 5b 43 83 3d 26 22 34 3c e3 0b c5 3d 7a 8a a9 bd
       0.064093314 0.01099447 0.09621408 -0.082783654
0000c0 67 a7 88 bd e3 5d 37 3b 52 a6 0b 3e b2 97 1a bd
       -0.066725545 0.0027979545 0.13637665 -0.037742324
0000d0 4e 62 2a 3d 86 8a d5 3d f5 d3 07 be 8a 83 a4 bd
       0.041597657 0.10426812 -0.13264449 -0.080329016
0000e0 cb 89 47 bd e9 f8 19 bd c5 54 f1 3c 09 83 22 be
       -0.048715394 -0.037590895 0.029459367 -0.15870298
0000f0 0e 60 14 bd f6 f5 f6 bc 63 94 4a bb e6 1d ae 3d
       -0.036224417 -0.03014658 -0.00309112 0.085017964
000100 01 51 7a 3d a5 19 5e 3d 9e ad d3 bd 1e 4e c6 bc
       0.061112408 0.054223675 -0.10335849 -0.024207171
000110 bb 69 28 3d 50 af 6a bd f1 37 b0 3d bf c4 a4 bb
       0.041116457 -0.057296097 0.0860442 -0.005028337
000120 7a d2 97 3d 04 bc 9a bc 4b 1f ea bd 87 13 06 bb
       0.07413192 -0.018888481 -0.1143175 -0.0020458417
000130 48 8f 5e 3d 76 1e fa 3d 58 3a 03 bd 06 a9 a9 bd
       0.054335862 0.12212841 -0.032038063 -0.08284192
000140 4a 37 dc bc 38 0b da bd 58 4c d4 3d 29 f3 12 be
       -0.026881833 -0.10646671 0.10366124 -0.1435057
000150 02 b4 e1 bd f0 af b2 bb e1 b8 16 3e 10 3a 1f 3d
       -0.11020662 -0.0054531023 0.14718963 0.038873732
000160 74 6f f3 bd 5f 0c 2d 3d 46 77 97 bd bf 4b 25 3e
       -0.11886492 0.042248126 -0.073957965 0.16142176
000170 c0 80 b1 bd e7 14 c2 bd 69 4d 89 3d a8 82 be bc
       -0.08667135 -0.09476643 0.06704218 -0.023255661
000180 39 3b 61 bb ee 12 f1 bb 34 9b d1 bc eb 51 c4 bb
       -0.0034367575 -0.007356993 -0.025586702 -0.0059912107
000190 de b6 21 3e b0 5b e8 bd be 57 cd 3c b6 a7 93 3d
       0.15792415 -0.11345613 0.025066253 0.07209723
0001a0 36 bd 99 bc 07 6e 8f bd f9 97 27 3e 9e ca c2 3c
       -0.01876698 -0.07003408 0.16366567 0.023778256
0001b0 3c b4 44 bd 88 1c 82 3c a4 2a 0e be 5f 05 40 3e
       -0.048023447 0.015882745 -0.13883454 0.18752049
0001c0 8d b5 a8 bd 9e c0 65 3d 37 a9 e1 bd 53 89 50 3b
       -0.08237753 0.056091897 -0.11018603 0.0031820133
0001d0 d2 54 1c be f3 59 1e bd ab c3 84 3c 21 89 17 be
       -0.15266731 -0.03866 0.016206583 -0.14798404
0001e0 4f 2d a9 3c 19 d3 13 3e e7 88 6a 3d 35 f5 15 bd
       0.020651488 0.14435996 0.057259466 -0.0366108
0001f0 28 02 20 3e 40 ff 5f bd bd 7e de 3c 05 7d 3a be
       0.15625823 -0.054686785 0.027160043 -0.18211754
000200 11 be 2a bd a7 9d 92 3c 29 33 db 3d 3a cf 10 be
       -0.041685168 0.01789744 0.107031174 -0.1414155
000210 6e d5 a5 bd d6 71 13 bd 3f 77 a3 3d f5 85 71 3d
       -0.08097349 -0.035997234 0.07981729 0.058965642
000220 fa c4 a2 bd d5 8e 8a bd 69 30 1d bc e5 65 cf bc
       -0.079477265 -0.06765524 -0.009594061 -0.025317142
000230 a6 28 e3 3c 3e fd bb 3c d7 21 63 bd b3 60 f0 ba
       0.027729344 0.022947904 -0.055452194 -0.0018339365
000240 72 e7 7b bd 01 e2 86 bc 7b 2a 06 3e 1c 18 a4 3d
       -0.06150002 -0.016465189 0.13102143 0.08012411
000250 0f 59 73 bc 23 c4 7e 3d af eb a7 bb 30 49 32 be
       -0.014852776 0.06219877 -0.005124531 -0.17410731
000260 c9 ac a0 3c 01 45 90 bd 95 a5 de 3d 7a 4a 18 3d
       0.01961364 -0.070444115 0.10871426 0.0371804
000270 b3 43 25 bc 8f 38 66 3d 53 13 11 3e 7f b4 55 3d
       -0.0100869415 0.056206282 0.14167528 0.052174088
000280 82 18 8a bc 4a 61 0e be 06 e8 08 be b9 c0 fe bd
       -0.01685739 -0.139043 -0.1336976 -0.12439103
000290 b2 32 77 b9 71 9f 53 3d 54 7f 5d 3c d5 93 7c bd
       -0.00023574641 0.051665727 0.013519127 -0.06166442
0002a0 1b 5d 2d 3d dc 93 5c 3e 8d d0 97 3d d3 db 09 be
       0.04232512 0.21540779 0.07412825 -0.13462763
0002b0 27 3e 79 3c 40 f9 a3 3b 5f cb aa bd 1b a8 e2 3c
       0.015212572 0.005004078 -0.08339571 0.02766805
0002c0 5d 65 aa bd 06 86 02 be 0f bb 01 3e 4e f7 cb bb
       -0.08320115 -0.12746438 0.12669013 -0.0062245494
0002d0 59 b4 40 3d 78 a6 e9 bb 29 51 87 3e 5b a2 9e 3d
       0.047046993 -0.0071304403 0.26429108 0.077458106
0002e0 0a 6b 17 bd d1 78 7b 3c 6f 11 2a bd 01 da 65 ba
       -0.036967315 0.015348629 -0.041520532 -0.0008768142
0002f0 d3 eb f7 3d 87 45 1b 3d c1 0e 3f 3c ee c2 f8 bd
       0.12105527 0.037908103 0.011661232 -0.12146555
000300 71 39 59 3d 1c b7 b6 3d eb 78 d2 3c a9 eb b7 3d
       0.053033296 0.08921644 0.025692424 0.089804955
000310 b8 09 3f 3e 51 bb aa 3d 2e 07 77 bc f3 7b 03 3e
       0.18656051 0.08336509 -0.015077395 0.12840252
000320 0f f9 e5 bc 66 28 64 3c 48 18 c7 bd b6 f1 59 bd
       -0.028072862 0.013925647 -0.09721428 -0.05320903
000330 e3 02 eb 3c b0 b3 d0 bd 7d 35 ce bd f8 f1 5d 3d
       0.0286879 -0.10190523 -0.10068796 0.054185838
000340 17 7a d3 bd e3 ae 8a bd 90 18 29 3e 53 69 46 3d
       -0.10326021 -0.06771638 0.16513276 0.04844029
000350 1b 17 95 3c d3 a9 b3 3d c5 2e 87 3d d4 b0 04 3d
       0.018199494 0.08772626 0.066007175 0.0323952
000360 58 8f ed 3c 0a bc 18 bd a0 0b e9 3d d3 1e a2 3c
       0.028999016 -0.037288703 0.113791704 0.019790089
000370 5d cb 6e 3d 19 cd 6b 3d b8 b4 6e 3d 5b 96 2e be
       0.05829941 0.057568643 0.058277816 -0.17049544
000380 20 f0 2c 3d 00 2b 4e 3c c7 8b c1 3c b3 c4 8b bd
       0.04222119 0.012583494 0.023626221 -0.06824627
000390 d2 cb b9 3d b3 e2 0e bd c6 68 02 bd c4 59 a5 bd
       0.09072079 -0.034884166 -0.0318382 -0.08073762
0003a0 01 cd e9 3c 5a 55 18 bc 15 21 2a be c9 f1 0f 3c
       0.028540136 -0.009297693 -0.16614182 0.008785673
0003b0 c3 82 45 bd 0b a7 da bd 41 e7 f8 3d d6 d0 90 bd
       -0.048220407 -0.10676392 0.12153483 -0.07071082
0003c0 6c b9 ba 3d 9f 85 fa 3c d6 93 75 3d b1 dc 1f bd
       0.09117398 0.030581294 0.05995544 -0.039028827
0003d0 df 3f c2 bd 2d 2c 0a bc 74 1e 9a bd 83 d2 af bc
       -0.09484839 -0.008433384 -0.0752534 -0.021462684
0003e0 03 0c 75 3d 60 d6 ed bc 44 fb 12 3e ed f9 9d bd
       0.05982591 -0.029032886 0.14353663 -0.07713685
0003f0 15 ed 6b 3d 75 5b 18 3d c5 ac 76 3b 7e fd 49 3e
       0.057599146 0.037196595 0.00376396 0.19725606

network_body._body_endoder.seq_layers.2.bias f4 [128]
000000 b6 c1 1d 3b a3 59 2b 3b 8d 7c 6d 3c f1 72 33 3c
       0.002407176 0.0026145957 0.014495027 0.010952697
000010 f0 3f e3 3b 0d 4d af 3b f6 f1 95 3b 38 39 c8 3c
       0.006935112 0.0053497613 0.004575963 0.024441347
000020 b8 da ed 3a ec 83 f0 ba d3 af 61 3c 80 ee 86 3c
       0.0018146848 -0.0018349863 0.01377483 0.016471148
000030 c0 91 01 bc 41 35 4d b9 4e 74 15 3c eb 81 65 bb
       -0.007908285 -0.00019570162 0.0091219675 -0.0035020064
000040 cc a6 8e 3c bd 3f 2c 3c ce 81 59 3a cb a1 f9 3c
       0.01741352 0.010513243 0.00082972355 0.030472657
000050 4e 1a a1 3c d3 89 78 3c c8 32 7a 3b e0 a8 e2 bb
       0.019665863 0.015169579 0.003817724 -0.006917104
000060 ae e0 50 bb 7a 1b bd 3b bb 15 91 3b 0c b5 b2 bb
       -0.00318722 0.0057710977 0.0044276393 -0.0054537114
000070 f5 32 2a bb 6c 58 72 3c 28 5c b5 ba 45 1e 59 3c
       -0.0025970314 0.014791589 -0.0013836669 0.013251846
000080 9c 72 50 3a ee 5e 99 3c fd 93 98 bb 36 9d 09 3b
       0.00079516484 0.018722024 -0.0046563135 0.0020998246
000090 a0 23 ba 3c 31 5d 3f 3a 2d 05 19 3d 9f 87 e0 3c
       0.022722065 0.00072999584 0.03735845 0.02740842
0000a0 de ee 72 3b e0 57 d6 3b 41 95 3f 3c e0 19 3d 3c
       0.0037068645 0.0065412372 0.0116933 0.011541814
0000b0 0b 40 5c 3c a7 e1 d9 3c ec 16 b0 3c af c0 47 3c
       0.013443003 0.026596857 0.021495305 0.012191935
0000c0 ee f3 97 3c 1b c5 fc 3c d2 b9 94 3a 15 5a cf 3b
       0.018548932 0.030855706 0.0011346883 0.0063278773
0000d0 57 0e e5 3c a8 66 8c 3b e9 d1 8f 3a 62 98 81 3c
       0.02796094 0.0042846985 0.0010972592 0.015819732
0000e0 3c d5 11 3d cc 7c f5 3a d6 d1 99 3c cb 8f 04 3d
       0.035603747 0.0018729209 0.018776815 0.032363694
0000f0 a3 01 9f 3c 1f 91 a8 3c dc e7 d4 3c 35 7a 1c bc
       0.01940996 0.020577012 0.025989465 -0.009550621
000100 07 5a e6 3b 68 fb 3c 3c 2d ae be 3c d3 cb 04 bc
       0.007029775 0.011534549 0.023276413 -0.008105236
000110 fc 26 13 3c b3 da f7 3c c1 1a c8 3b 67 fa 12 3c
       0.008981463 0.030255651 0.006106705 0.008970833
000120 19 fc d9 bb 2a 7d 43 3c f9 d8 88 3c 8b 0f 14 3d
       -0.006652367 0.011931697 0.016705023 0.036147635
000130 12 63 cd 3b 59 94 ae bb 97 a8 ec 3b 9f 91 84 3c
       0.0062679136 -0.005327743 0.007222246 0.016182719
000140 41 28 bb 3b b1 8d c0 3a bf e4 0f 3c c5 9b c1 b8
       0.0057115857 0.0014690665 0.008782565 -9.2319715e-05
000150 23 d9 23 bb 8b bd fa 3c 35 91 93 3c 08 21 79 ba
       -0.002500125 0.03060796 0.018013576 -0.0009503518
000160 7a ea 22 bc 94 fb 17 3d b5 5c 5f 3c c1 19 7d 3c
       -0.009943599 0.037105158 0.013632943 0.015448035
000170 8f 01 5f 3c 9f db c9 3c b9 4d cd 3c 9e f0 8b 3c
       0.013611211 0.024640856 0.025061475 0.017082509
000180 98 f0 aa 3c 3e a3 3a 3c aa 2c 22 ba 24 d0 1f bc
       0.020866677 0.011391459 -0.0006186465 -0.009754214
000190 7a b2 c1 3c 53 89 e1 bb 65 85 2c 3b e3 ef de 3b
       0.023644675 -0.0068828254 0.0026324627 0.006803499
0001a0 52 a7 0d 3d ad c3 2f 3c 61 2a 86 3c 7d 39 56 3c
       0.034583397 0.010727805 0.01637763 0.01307523
0001b0 8c bc 00 3c b4 c1 df bb 2d 25 78 3b db f7 87 3b
       0.007857453 -0.006828511 0.0037863955 0.0041494197
0001c0 7e 6d a0 3c 90 ef 34 3c d9 79 b5 3b d0 ce 59 b7
       0.01958346 0.011043444 0.005538207 -1.298236e-05
0001d0 95 41 1c bb 97 68 36 3b b4 bb 95 ba 52 5c 54 3c
       -0.00238428 0.0027833336 -0.0011423738 0.012961464
0001e0 31 55 40 ba 25 e8 90 3b 70 2e 90 3b dd 4e 08 3d
       -0.0007336913 0.004422205 0.004400067 0.033278335
0001f0 0f 1c 18 3c 98 a7 6e 3c 6d 57 5d 3c 1b eb 89 bc
       0.009284033 0.014566325 0.013509613 -0.01683574

action_model._continuous_distribution.log_sigma f4 [1, 2]
000000 77 4d a5 bc 66 3b 58 bc
       -0.02017854 -0.013197755

action_model._continuous_distribution.mu.weight f4 [2, 128]
000000 2e c5 62 bc a0 44 d7 3c 72 99 b6 bc 4b 50 21 bc
       -0.013840957 0.02627784 -0.022289965 -0.0098458035
000010 f2 c8 ed bc de 6c d1 3c 01 61 c0 3c f7 71 8c 3d
       -0.029026482 0.025564607 0.023483755 0.068576746
000020 d1 d6 0c 3d 78 06 a2 bc 4a 00 89 bc 76 2b 11 bd
       0.034384552 -0.019778475 -0.01672377 -0.03544184
000030 5f af 4b bc d4 f8 36 bd db 34 10 3d cc 23 d7 bc
       -0.012431948 -0.044670895 0.035206657 -0.026262186
000040 69 5f 3b 3d 66 bd ec 3c d5 6d ef 3c 3f 8a 45 bd
       0.045745287 0.028898906 0.029227177 -0.048227545
000050 94 15 d8 bc ff df 0a 3d ab ea d8 bc a6 09 b5 bc
       -0.026377477 0.033905026 -0.026479086 -0.022099327
000060 56 73 7f 3c 6e dc 10 bc 83 de d0 bc 11 1e 92 3a
       0.015591463 -0.008841617 -0.025496727 0.0011147877
000070 31 9f 84 3c 67 bd dc 3b 7b ab 57 bb 4d fd 29 3c
       0.01618919 0.0067364457 -0.0032908607 0.010375333
000080 ea 1e 57 3c e8 a3 f5 b9 03 2a 95 3c 8a fc 83 3c
       0.013129929 -0.0004685216 0.01820851 0.016111631
000090 ad 3d 79 3d 1d af ba ba 5e a2 f4 3c c1 06 88 bd
       0.060849834 -0.0014242862 0.029862579 -0.06641913
0000a0 91 49 2b 3c 75 af 45 bc 67 d5 b5 bc ab 4d 23 3b
       0.010454551 -0.012065758 -0.022196485 0.002491812
0000b0 0d 6e 9d bc a4 ce e0 bc e0 d7 26 3d 2b 9c 51 bc
       -0.019217515 -0.027442284 0.04073322 -0.012793581
0000c0 06 df 99 3b e3 d0 80 3c 6f 49 eb b9 a3 98 e2 bb
       0.004695776 0.015724605 -0.00044877405 -0.0069151684
0000d0 89 6b 62 bc 4b 42 25 3c 05 e4 0d 3b 61 7e 92 bc
       -0.013819584 0.010086606 0.0021650803 -0.017882528
0000e0 1e 61 80 3d 17 f8 e2 bb 50 96 8b bc 59 25 d2 bb
       0.06268524 -0.0069265473 -0.017039448 -0.0064131436
0000f0 ff 3d 2a 3c 2d 7a 1a bd 76 5a a4 bc 0a 54 59 3c
       0.010390758 -0.037714172 -0.020062666 0.013264665
000100 06 5e 4b 3d 4a fd 5e 3d 26 24 00 bd 43 df ea 3a
       0.049650215 0.054440774 -0.031284474 0.001791932
000110 87 18 ac 3c 50 23 85 3c ee 2b 7f bc a3 e3 9c ba
       0.02100779 0.01625219 -0.0155744385 -0.0011969696
000120 1c 70 87 3c 1a f8 ca 3c 34 7b 4d bd 4e 75 3a 3d
       0.01653295 0.024776507 -0.050166324 0.045522027
000130 41 87 ed 3a e9 9b 3e 3b 5a 8f af ba 61 e2 e8 bc
       0.0018121974 0.002908463 -0.0013394163 -0.028428258
000140 17 cc 4d 3d 06 e3 39 bc 16 bb f8 3c b1 ce 91 bc
       0.050243463 -0.0113456305 0.030362647 -0.017798753
000150 45 c9 94 3c 4c 27 01 3d f9 6f 80 bc dc a2 fb 3c
       0.018162379 0.031531617 -0.015678393 0.030717306
000160 82 df c5 3c 34 e8 84 3d 50 00 92 bc 5c 8c 08 bd
       0.024154428 0.06489602 -0.017822415 -0.033336982
000170 84 3b 2f bd 69 09 04 bd b6 4e 05 bd 7f 8e 4e bd
       -0.042781368 -0.032235537 -0.032545768 -0.050428864
000180 6e c2 4f bc 1d 8c b7 3c 07 c3 15 bc 7d c2 e6 3c
       -0.012680633 0.022405678 -0.009140736 0.028168911
000190 d9 6f de 3b b1 17 3c bb 97 bd b4 bc f8 d0 73 bb
       0.0067882356 -0.0028700645 -0.02206306 -0.0037203413
0001a0 bc e0 86 bd a4 93 d3 3c 21 68 8a 3c 6b dd 94 bc
       -0.065858334 0.025827236 0.016895356 -0.018171987
0001b0 44 3d 3b ba 79 37 d9 bb dd 0c ab bc da d6 e6 3c
       -0.0007142613 -0.0066289273 -0.020880157 0.028178621
0001c0 bd 7c 03 3b 07 96 4e bc c8 28 cf bc 36 ad 5e bb
       0.0020063363 -0.0126090115 -0.025288 -0.0033977753
0001d0 35 34 b1 bc 24 23 16 3c b9 17 ca 3b 71 83 78 bc
       -0.02163134 0.009163652 0.0061673787 -0.015168057
0001e0 3d 8d 7c 3d b4 10 1f bd ee 2b 9b 3c af 07 b5 bc
       0.061658133 -0.03883429 0.018941846 -0.02209839
0001f0 21 e7 08 bd dc 9b 20 3d 4e 74 a5 bc 4e f4 97 ba
       -0.033423547 0.03921114 -0.02019706 -0.0011593194
000200 2a 1d 23 bc a2 ea f0 3c a5 7a 8a 3c 2d 80 dc 3c
       -0.009955684 0.029408757 0.016904185 0.026916588
000210 27 8f a7 3b 19 f8 cc bb f4 57 a4 3c 08 b1 bc 3c
       0.0051135006 -0.0062551615 0.02006147 0.023033634
000220 20 c6 17 3a 8c 42 b4 3c d4 53 21 bd 19 c9 ec bc
       0.0005789716 0.022004388 -0.039386585 -0.028904485
000230 14 d3 b7 3a f2 1d 13 3c 16 f6 2d bb e2 c0 1e bc
       0.0014024698 0.0089793075 -0.0026544384 -0.0096895415
000240 46 67 61 3d 7d a7 6d bc ca b6 cf 3c 85 6f 54 bd
       0.05503013 -0.014505264 0.025355715 -0.051864166
000250 0e 3c 15 3d 94 86 07 bd 37 06 9e bc b5 6f 51 3c
       0.036434226 -0.033087328 -0.019290073 0.012782981
000260 ef ce b0 bb 03 2d bf 3c a5 80 0a 3d 1e fb 98 3b
       -0.005395762 0.023336893 0.03381409 0.0046686074
000270 58 a2 4f bb 38 65 14 3d 06 b4 dd 3b 2a f8 64 3d
       -0.0031682458 0.036229342 0.006765845 0.05590073
000280 ac f1 5c bc 71 4a e1 3c 30 aa 30 3c c1 63 16 bb
       -0.013485353 0.027501317 0.010782763 -0.0022947642
000290 de df 73 bd c9 32 53 bc 8d e7 36 bd e4 57 58 3c
       -0.05953967 -0.012890526 -0.044654418 0.0132045485
0002a0 76 e2 4d bc b5 f9 f0 3c 65 4a e5 bc 22 5f a7 3c
       -0.0125661995 0.029415945 -0.027989576 0.020431105
0002b0 20 b2 99 bc d2 4d fd 3c ab 50 98 bb bf 46 e4 bc
       -0.018761694 0.030920897 -0.0046482882 -0.027865766
0002c0 dc b5 26 bd 8e e1 07 bd df ab d8 bc 98 1b 00 bc
       -0.04070078 -0.03317409 -0.026449142 -0.007819079
0002d0 54 74 7d bd bc b3 9a 3c a0 1e 36 3d 70 db 13 3d
       -0.061878517 0.018884532 0.0444628 0.036097944
0002e0 47 1f 93 3c 41 9f 9e 3c 49 5b 06 bc 1f ad 3b bd
       0.01795925 0.019363048 -0.008200475 -0.045819398
0002f0 2b d9 1d bd 67 10 f4 3c a7 69 3c 3d da cd df 37
       -0.038537186 0.029792977 0.045999195 2.6679529e-05
000300 0f 94 53 bd 4e 1c a1 b9 69 9e 0f bc 6d de 01 3b
       -0.05165487 -0.00030729402 -0.008765795 0.0019816414
000310 9f 67 63 bc 1f 25 df bc 17 05 7a 3c 62 77 08 3d
       -0.013879686 -0.02723938 0.015260003 0.033316977
000320 c2 c5 c3 3b 54 13 db bc d6 d8 65 3b d5 6c 0d bd
       0.0059745023 -0.026742615 0.0035071871 -0.03452762
000330 11 80 9d bc 48 98 20 bc 48 1a c4 bc 58 57 26 3d
       -0.019226106 -0.009801932 -0.023938313 0.04061064
000340 6b 9f 0e 3b 0d 39 98 bb ec ea c1 3c 6d 2d 1b bc
       0.00217625 -0.004645473 0.02367159 -0.00947128
000350 7e b7 bc bb 29 e6 6c bd 8b 9b c1 bc e4 cc 18 3c
       -0.0057591787 -0.057836685 -0.023633739 0.0093261935
000360 fb 37 60 3c 0a 0a 25 bd dc b9 ef 3b 67 f7 77 3c
       0.013685222 -0.040292777 0.0073158573 0.015134669
000370 f0 f0 0d b9 0d c1 c8 3c eb b2 2a bd cb b2 23 3d
       -0.00013536564 0.024506116 -0.041674536 0.039965432
000380 18 bc 97 bc 01 54 44 bc a0 9c ed 3c c7 d5 db 3a
       -0.018522307 -0.011982919 0.029005349 0.0016772085
000390 9d 6f 33 3d d3 48 22 bc 56 86 b7 bc c0 76 e7 3c
       0.043807615 -0.009905058 -0.022402924 0.028254867
0003a0 16 fd 11 bd c5 e7 83 3c 4b 95 64 bc 20 03 46 3c
       -0.035641752 0.016101727 -0.01395161 0.012085706
0003b0 67 67 4a 3c bd 7c 60 bb f9 f0 4c bc c4 bc fd 3c
       0.012353755 -0.0034254037 -0.012508624 0.0309738
0003c0 58 a0 29 bd cf 88 de 3b d4 72 c5 3c d9 37 f2 3b
       -0.04141268 0.006791211 0.024102606 0.0073919115
0003d0 33 18 e4 3b ae 86 fd bb bf ec 87 3c ae bd 3e bc
       0.0069608926 -0.0077370023 0.016592382 -0.011641903
0003e0 d0 41 db 3b 47 a8 82 bc 31 b4 ab bc 9c be ec bc
       0.006691195 -0.015949382 -0.020959945 -0.028899483
0003f0 39 56 a5 bc 33 09 0b bd 1d 18 82 bb 58 93 85 39
       -0.020182716 -0.03394432 -0.0039701597 0.00025477516

action_model._continuous_distribution.mu.bias f4 [2]
000000 21 ae b5 bb b5 10 0d bb
       -0.0055444394 -0.002152485

exp_avg f4 [128, 8]
000000 bf 4a d1 39 c1 5d 9b 39 ae c7 bc ba b0 b3 d6 b9
       0.00039919277 0.00029633756 -0.0014402771 -0.00040951138
000010 6b 4c b0 39 ba ef e2 38 94 91 0b ba 86 44 a5 b9
       0.00033626272 0.00010821172 -0.0005324122 -0.00031522306
000020 68 2b f7 b9 e4 6e 81 39 c4 0a 4e 3a 2f 18 cd b9
       -0.0004714385 0.00024687417 0.00078598806 -0.00039118665
000030 29 c3 8d 39 bc cb 08 39 40 49 4b b9 34 be a7 39
       0.0002703902 0.00013045868 -0.00019386876 0.00031994435
000040 e1 f2 b7 3a 77 ca d5 39 88 db db b9 87 f7 07 3a
       0.0014034176 0.00040777374 -0.000419345 0.0005186726
000050 ef ef cd 39 04 f8 89 3a b0 48 7b 3a 5a 82 0a 3a
       0.0003927941 0.0010526185 0.00095857214 0.0005283706
000060 62 ac 6f ba 0f b5 98 39 79 7c 6d 3a 2a f7 ce b9
       -0.00091428135 0.00029126598 0.00090593804 -0.00039475533
000070 22 4a a8 39 20 ea 8c 3a 4d 14 1f b9 58 64 a1 3a
       0.0003209869 0.0010750927 -0.00015170984 0.001231323
000080 3c 0a 03 3b 43 88 14 39 9c 54 82 3a 0b 19 93 39
       0.0019995114 0.00014165141 0.0009943428 0.00028056683
000090 ad 52 5e 39 ce 1e 14 3b 88 8b db 3a b4 2d a1 3a
       0.00021202369 0.002260137 0.0016749958 0.0012296946
0000a0 35 54 81 39 d7 ac 95 39 4c c5 29 b8 93 08 aa 39
       0.00024667536 0.0002854827 -4.0476487e-05 0.00032431315
0000b0 53 1f aa 39 d6 f1 1c b9 6e 4b 0c 3a e1 76 49 b9
       0.00032448265 -0.0001496741 0.0005351816 -0.0001921314
0000c0 95 62 ce b7 d4 49 8f 39 ac 80 e3 ba 09 c5 f3 39
       -2.460302e-05 0.00027330092 -0.0017357073 0.00046495374
0000d0 a7 74 95 39 4d d2 27 b9 88 28 9c b7 b0 f1 c5 ba
       0.00028506407 -0.00016004704 -1.8615523e-05 -0.0015101936
0000e0 a6 49 0d b9 51 38 0f ba d2 d5 40 bb ec 6d c6 39
       -0.00013474244 -0.0005463409 -0.0029424322 0.000378474
0000f0 3d 6e 36 ba ff fa 90 3a 96 dc 71 3a 71 73 cc ba
       -0.0006959176 0.0011061131 0.000922629 -0.0015598369
000100 6b 49 ab ba a9 08 a4 38 18 6c 48 ba b3 e7 19 39
       -0.0013068145 7.8217425e-05 -0.0007645502 0.00014677532
000110 2d c4 59 38 84 96 a5 39 0a 87 98 b9 63 99 f1 39
       5.1919535e-05 0.00031583395 -0.0002909231 0.00046081384
000120 e3 ff 78 3a 50 c2 2c b9 0a e7 96 3a c5 37 00 39
       0.00094985793 -0.00016475585 0.0011512947 0.00012227807
000130 ac 88 3e b9 77 f1 85 39 8d 50 4d 3a 69 5e 8e 3a
       -0.00018170726 0.00025547642 0.00078321324 0.0010861877
000140 69 7e a1 ba 40 c9 84 39 56 06 b0 ba 54 04 83 ba
       -0.0012320998 0.00025326945 -0.0013429623 -0.0009995797
000150 33 ac 91 39 39 96 c0 b9 c2 2c 9c ba 7d 31 62 b9
       0.00027784854 -0.00036733018 -0.0011915194 -0.00021571475
000160 15 6a 56 bb 44 01 01 b9 3d 04 c0 bb 3f d2 13 ba
       -0.0032717038 -0.0001230287 -0.0058598802 -0.0005638934
000170 94 f6 3c b9 08 b0 be 3a 52 24 59 ba db 4f 98 ba
       -0.00018020935 0.0014548311 -0.0008283305 -0.0011620478
000180 59 47 8d ba 60 fb c3 3a 13 06 3a 3b f3 41 cd ba
       -0.001077871 0.0014952235 0.0028384968 -0.0015659913
000190 e0 bb da 3a 7b d1 1e ba 98 d5 24 bb ba 54 58 3b
       0.0016688071 -0.00060584367 -0.0025151726 0.0033009485
0001a0 c8 49 09 3b ec d0 35 b9 63 16 23 3b 70 f3 2b 3a
       0.0020948518 -0.00017339335 0.002488517 0.00065594073
0001b0 cd 98 10 b9 8e c1 38 ba 65 3b d5 39 bc 6e 90 ba
       -0.00013789833 -0.0007047885 0.00040670778 -0.001101933
0001c0 4a 2a 2d 3a 10 1b 36 38 62 5e 3e 3b 04 f0 bb ba
       0.0006605728 4.3417385e-05 0.0029047956 -0.0014338498
0001d0 6d a5 90 38 91 ae 77 3b b7 29 8d 3a 72 01 78 3b
       6.897268e-05 0.0037793259 0.0010769878 0.0037842658
0001e0 d0 82 a0 36 1f 62 cf 38 2f cb 36 3b 21 44 8f 39
       4.7836e-06 9.888806e-05 0.0027892103 0.00027325845
0001f0 7e 21 09 39 ff 31 d3 39 52 b6 de 38 54 8a d5 3a
       0.00013077815 0.00040282306 0.00010619745 0.0016291835
000200 48 92 37 3b eb 7e ca 36 5c 2d 72 bb 21 10 e7 3a
       0.0028010774 6.0348443e-06 -0.0036953306 0.0017628708
000210 15 b1 b2 37 cf 70 84 bb a8 f2 3d 3a bc 6b c8 bb
       2.1301714e-05 -0.004041768 0.00072459364 -0.0061163586
000220 fb f2 32 b9 0a 1f 16 39 8e 76 56 3b d8 04 84 3a
       -0.0001706592 0.00014316678 0.0032724473 0.0010072244
000230 6a 87 1a 39 e9 5e 1b 3a 59 93 61 3a aa 64 84 b9
       0.0001473703 0.00059269235 0.00086050254 -0.00025252003
000240 23 a3 1f 3a b3 d8 63 3a 6b c9 1c 3b 55 cd e3 b9
       0.0006089678 0.00086916535 0.0023923765 -0.00043449798
000250 37 40 66 3a 81 31 b8 3a 72 2f 1d 3a cf ea 28 3b
       0.00087833725 0.0014052839 0.00059961446 0.0025774722
000260 99 3d af ba 4f 91 f5 39 0a f9 42 3a 10 1c 40 3a
       -0.0013369798 0.00046838305 0.00074376224 0.00073284004
000270 cd 63 0d 3a 74 85 47 bb 3a ab fb b9 c5 40 0c bb
       0.00053935946 -0.0030444534 -0.00048002024 -0.002140091
000280 83 a3 34 3b f3 1a 58 b9 69 26 53 3a 7a 49 7e 3a
       0.002756328 -0.00020609405 0.0008054735 0.000970028
000290 a3 28 fa b8 0b 63 47 3a e7 ba 25 3b fb 2c cf ba
       -0.00011928498 0.0007606006 0.0025288404 -0.0015806252
0002a0 81 b3 5c 3b 45 3c 70 39 c7 0f 9d 3a fd d0 2f 3a
       0.0033676329 0.00022910636 0.0011982851 0.0006706862
0002b0 b3 9e 2e 39 b7 2d 6f 3b b6 3f 35 3b 4e 18 98 3b
       0.00016653053 0.0036495754 0.0027656383 0.004641569
0002c0 a2 3f bb ba 2d e2 33 3a 0d 0d a3 ba 99 c1 05 3a
       -0.0014285932 0.0006862011 -0.0012439803 0.00051023957
0002d0 85 19 30 3a f6 9d 83 ba 19 36 d8 b8 c8 d0 f1 ba
       0.000671767 -0.0010041583 -0.00010309759 -0.0018449062
0002e0 43 de a3 ba 12 b0 19 39 f6 a0 39 bb c2 8c 5d 38
       -0.0012502152 0.00014656808 -0.00283247 5.2821597e-05
0002f0 b8 49 0c 39 2d d9 22 bb 86 c1 bf ba d8 c4 43 bb
       0.00013378903 -0.0024848685 -0.0014629818 -0.0029871967
000300 36 10 07 bb f2 5c e4 39 c3 26 86 bb 5a 2c 09 3a
       -0.0020609028 0.00043556798 -0.004093976 0.0005232744
000310 92 eb a9 39 17 13 c2 b9 1b af 87 b9 ec c8 f0 38
       0.00032409705 -0.00037016787 -0.0002587967 0.000114815164
000320 34 db bf 3a 99 f2 67 39 60 63 ce 3a ab bf a0 3a
       0.0014637471 0.00022120251 0.0015746169 0.0012264153
000330 3a 8b 3d 39 f9 52 5d 3a ab 3e b7 3a a1 0a 12 b9
       0.0001807631 0.0008442845 0.0013980469 -0.00013927605
000340 6c 5e 30 3b 0d b1 0a 3a 83 68 8a ba 4c d7 04 ba
       0.0026911749 0.0005290665 -0.0010559711 -0.0005067482
000350 bd b7 0a 3a 2c fe 20 3b 44 be 90 3a 5e b3 12 ba
       0.00052916614 0.002456556 0.0011043032 -0.0005596186
000360 e5 03 ae 3a 8c 62 10 39 78 28 a8 39 bf e0 8d 39
       0.0013276307 0.00013769622 0.0003207361 0.00027061065
000370 df f1 20 39 7d 56 7f 37 80 94 09 3a 75 d1 98 b9
       0.00015348893 1.52193215e-05 0.00052482635 -0.00029147757
000380 6b 37 34 ba 17 0e a0 b9 c0 c1 4b bb 5e 98 d9 b8
       -0.0006874713 -0.00030528076 -0.0031090826 -0.00010375747
000390 e0 01 cc b9 65 bb 82 39 3b 81 22 3a a4 4d af ba
       -0.0003891131 0.00024935152 0.00061990664 -0.0013374579
0003a0 4d 12 87 3b 5a 1f c6 38 d2 93 09 3b e2 57 26 3a
       0.0041220547 9.4472154e-05 0.0020992649 0.0006345493
0003b0 02 4e e8 37 80 f4 9f 3b bc a4 43 3b 4c 0d c1 3b
       2.769288e-05 0.0048814416 0.0029852828 0.0058914777
0003c0 ad c5 c3 b8 e4 20 b5 38 b2 03 4e b9 ce 9e 19 3a
       -9.3351446e-05 8.636879e-05 -0.00019647068 0.00058601506
0003d0 39 33 05 39 9d 6d 2c 37 1a 64 e2 b8 fa 28 a8 ba
       0.0001270295 1.027752e-05 -0.00010795165 -0.0012829595
0003e0 ea 52 e7 ba 07 06 63 39 21 24 2e bb d4 4f 96 ba
       -0.0017648612 0.00021650652 -0.0026571827 -0.0011467882
0003f0 48 ef 82 39 d8 41 53 ba 7f e5 d5 ba 13 be 04 ba
       0.0002497381 -0.0008058823 -0.0016319006 -0.00050637237

exp_avg_sq f4 [128, 8]
000000 72 1f 33 38 4e 01 ea 35 0e 1f 4b 38 7d 45 1e 38
       4.270621e-05 1.7434738e-06 4.8427893e-05 3.773485e-05
000010 3b da e2 35 2b ed cf 37 e1 e8 a9 37 fa 69 e8 37
       1.6901826e-06 2.4786763e-05 2.0254813e-05 2.7705904e-05
000020 51 aa 48 37 ee 6b 07 35 57 76 41 37 c6 f5 3c 37
       1.1960584e-05 5.044848e-07 1.153125e-05 1.1262897e-05
000030 f9 ab 00 35 b1 73 24 37 03 bf cd 36 47 68 da 36
       4.793397e-07 9.802098e-06 6.131713e-06 6.5090458e-06
000040 06 73 fc 37 3d a0 98 35 d8 7d 05 38 e9 a5 dc 37
       3.0094303e-05 1.1371518e-06 3.1826872e-05 2.6303302e-05
000050 9c 3a 91 35 10 fc 94 37 89 fd 83 37 a6 06 8b 37
       1.08204e-06 1.776035e-05 1.5734478e-05 1.6573187e-05
000060 2c e4 28 37 3c 94 f2 34 f3 d1 33 37 50 ce f5 36
       1.0066706e-05 4.5183867e-07 1.0718114e-05 7.325587e-06
000070 57 37 eb 34 3e 46 21 37 13 68 9a 36 ad bf af 36
       4.3812426e-07 9.612702e-06 4.6016735e-06 5.2377204e-06
000080 8c fb 6b 38 c6 15 0f 36 17 8e 8b 38 46 d6 b0 38
       5.6262637e-05 2.1321334e-06 6.654503e-05 8.4322455e-05
000090 d4 d6 fb 35 e9 cb 79 38 97 a2 31 38 23 e0 98 38
       1.876348e-06 5.9556132e-05 4.2351512e-05 7.2896735e-05
0000a0 53 cd 13 37 3e fb f6 34 0d 71 88 37 9b 6c 51 37
       8.809689e-06 4.6003873e-07 1.6265107e-05 1.2482657e-05
0000b0 ab 8f e2 34 dd 9f 7d 37 f1 97 d1 36 2e 54 3b 37
       4.2200313e-07 1.5117196e-05 6.2463737e-06 1.1165668e-05
0000c0 02 1b 85 37 06 81 16 35 94 53 9b 37 51 11 94 37
       1.5867412e-05 5.606711e-07 1.8516359e-05 1.7651038e-05
0000d0 f0 bc 0f 35 d6 6d 3a 37 b3 87 48 37 01 01 92 37
       5.354659e-07 1.1112037e-05 1.1952524e-05 1.7405024e-05
0000e0 a0 b6 87 38 5e fb 3d 36 6f 16 93 38 8a 79 6d 38
       6.471318e-05 2.830951e-06 7.013685e-05 5.6618395e-05
0000f0 55 bd 3a 36 bd 77 25 38 d7 46 05 38 0e 42 26 38
       2.7826366e-06 3.945058e-05 3.1775646e-05 3.9639002e-05
000100 03 d4 94 37 d6 8a 30 35 a8 22 b2 37 05 76 bd 37
       1.77417e-05 6.576714e-07 2.1235392e-05 2.2585513e-05
000110 e3 8f 26 35 f8 13 6a 37 66 6a 5a 37 12 99 96 37
       6.20492e-07 1.3952136e-05 1.3018585e-05 1.7952672e-05
000120 2c 41 53 37 53 e6 fc 34 a9 e7 41 37 03 13 6e 37
       1.2591754e-05 4.710624e-07 1.1557634e-05 1.4190332e-05
000130 3f 2a dc 34 a4 c7 8a 37 b4 c4 f2 36 a7 c3 24 37
       4.100893e-07 1.6543847e-05 7.2350613e-06 9.820716e-06
000140 5d 09 a3 37 18 d8 7f 35 77 3a d7 37 51 94 9b 37
       1.9435474e-05 9.530936e-07 2.5657222e-05 1.8546505e-05
000150 dd 0e 76 35 5d 8d d9 37 58 34 3b 37 ea cd 34 37
       9.166377e-07 2.5934243e-05 1.1158256e-05 1.0776779e-05
000160 99 b6 60 38 19 7a 01 36 6f 67 63 38 05 e3 5b 38
       5.357582e-05 1.9293568e-06 5.4217347e-05 5.2425097e-05
000170 2f f2 ed 35 91 2c 0d 38 e4 5e 0a 38 d3 a6 00 38
       1.7728361e-06 3.3658525e-05 3.2990138e-05 3.0672945e-05
000180 f2 32 82 38 d9 32 53 36 41 16 a7 38 7f 10 47 38
       6.208372e-05 3.1471047e-06 7.967326e-05 4.746066e-05
000190 a3 f1 4d 36 9d 90 5d 38 d6 ce ef 37 5f 6e 1b 38
       3.0688032e-06 5.2825188e-05 2.8587336e-05 3.705767e-05
0001a0 ef 16 bc 37 95 2a 92 35 e0 3b e2 37 f1 86 cd 37
       2.2422026e-05 1.0890241e-06 2.696918e-05 2.4500741e-05
0001b0 2b b5 8a 35 50 14 ec 37 c0 71 3c 37 3b 7f 92 37
       1.0334528e-06 2.8142851e-05 1.1232158e-05 1.7463803e-05
0001c0 b1 c5 27 38 e7 24 16 36 04 a1 81 38 b5 65 1f 38
       4.0000017e-05 2.2373222e-06 6.181191e-05 3.8003276e-05
0001d0 f6 13 12 36 4d c0 47 38 2e c1 c3 37 58 15 de 37
       2.1767314e-06 4.762439e-05 2.3335768e-05 2.6474401e-05
0001e0 95 4a 3f 38 b3 5f ce 35 2f 59 24 38 7d 7a 5f 38
       4.560741e-05 1.5376048e-06 3.9183706e-05 5.328142e-05
0001f0 c6 de bd 35 5e 8c 10 38 65 d6 07 38 4e 27 ad 37
       1.4146433e-06 3.4463003e-05 3.238618e-05 2.064151e-05
000200 93 8b 4e 38 04 d0 41 36 57 d1 98 38 d9 9e 77 38
       4.9244216e-05 2.8880322e-06 7.2869174e-05 5.9037327e-05
000210 37 8e 3a 36 e8 f4 9d 38 d7 bc 0a 38 d6 ed 3e 38
       2.779894e-06 7.531961e-05 3.3077635e-05 4.5521032e-05
000220 4e 2a b5 38 c6 a2 8b 36 be 85 df 38 93 06 9a 38
       8.6386324e-05 4.161472e-06 0.0001065838 7.344517e-05
000230 e9 0b 88 36 80 90 b3 38 25 72 62 38 1e 76 68 38
       4.0545024e-06 8.5623e-05 5.3988904e-05 5.5423116e-05
000240 24 16 85 38 c5 18 44 36 c1 c5 9d 38 da 46 9b 38
       6.346058e-05 2.9220694e-06 7.523178e-05 7.404173e-05
000250 21 70 35 36 ab c2 84 38 6a 3d 18 38 e9 f9 31 38
       2.703637e-06 6.33051e-05 3.629682e-05 4.2432835e-05
000260 09 3a 07 39 d8 45 a8 36 fa 58 3d 39 18 a2 42 39
       0.00012896223 5.014921e-06 0.00018057591 0.00018561666
000270 b1 0f 9f 36 e8 d0 c4 38 8e e8 ee 38 6d 5e 3c 39
       4.740396e-06 9.38492e-05 0.00011392041 0.00017964253
000280 d6 c9 8f 38 7d 5b 30 36 81 7f e1 38 1f 3d b9 38
       6.856366e-05 2.6279297e-06 0.000107525855 8.832872e-05
000290 0f 9b 28 36 28 57 6a 38 a6 92 77 38 52 88 fd 38
       2.5124207e-06 5.5871118e-05 5.9025966e-05 0.00012089372
0002a0 58 65 14 39 00 4e e1 36 56 11 7f 39 47 a1 3e 39
       0.00014152133 6.714603e-06 0.00024325153 0.00018179893
0002b0 d2 a5 d9 36 76 96 e2 38 b5 a1 f6 38 28 10 5e 39
       6.486408e-06 0.00010804545 0.000117603144 0.00021177588
0002c0 9a 48 5f 38 67 71 07 36 c4 d8 63 38 81 b5 9e 38
       5.323496e-05 2.0182576e-06 5.4322896e-05 7.567835e-05
0002d0 92 ae f7 35 40 39 34 38 4a f7 06 38 8a f9 39 38
       1.8453741e-06 4.2968662e-05 3.2178395e-05 4.433984e-05
0002e0 0d d8 86 37 d2 3b 46 35 a7 22 a8 37 f1 65 77 37
       1.6074651e-05 7.38478e-07 2.0043297e-05 1.4746082e-05
0002f0 b5 56 3b 35 3b 2f 6d 37 15 94 fb 36 02 31 57 37
       6.9789104e-07 1.41372975e-05 7.497622e-06 1.2826409e-05
000300 3f 0c a5 38 a3 4a 42 36 93 45 bd 38 ad d2 81 38
       7.870094e-05 2.8951697e-06 9.0251815e-05 6.190441e-05
000310 8e d9 3d 36 26 a3 1b 38 05 ce 38 38 4f 83 ab 38
       2.8289828e-06 3.7106824e-05 4.406089e-05 8.1783735e-05
000320 d7 a9 43 38 ca 00 0a 36 5e 99 72 38 64 83 55 38
       4.66498e-05 2.0564062e-06 5.784013e-05 5.0905524e-05
000330 d2 e0 02 36 36 85 1a 38 95 52 e2 37 bd b7 c7 37
       1.9502372e-06 3.6840524e-05 2.6979755e-05 2.3808208e-05
000340 8e 0e f6 38 c5 52 95 36 a6 81 fb 38 29 25 f0 38
       0.00011732905 4.4501817e-06 0.000119927616 0.000114510134
000350 db 36 8f 36 d6 4f a3 38 41 77 89 38 79 12 7f 38
       4.268118e-06 7.787316e-05 6.554882e-05 6.081394e-05
000360 e6 c9 84 37 ce 15 2a 35 6e 61 85 37 30 8a 78 37
       1.5829643e-05 6.3361665e-07 1.5900205e-05 1.4814126e-05
000370 1a 6c 20 35 14 40 78 37 d5 86 18 37 db c8 10 37
       5.9761953e-07 1.4796871e-05 9.091299e-06 8.629834e-06
000380 dd 11 95 37 00 68 35 35 09 b0 80 37 0a 3c 71 37
       1.7770502e-05 6.7579094e-07 1.5340762e-05 1.4378698e-05
000390 c3 ed 2e 35 1d 9a 6b 37 5b 85 14 37 f1 56 26 37
       6.516604e-07 1.4042974e-05 8.852537e-06 9.914614e-06
0003a0 75 ea 82 39 81 4d 2a 37 e0 1b 96 39 3b 79 9b 39
       0.00024970216 1.0150835e-05 0.00028630998 0.00029654228
0003b0 d7 63 21 37 03 a7 3c 39 9d 1d 2a 39 d7 27 49 39
       9.619594e-06 0.00017991294 0.00016223495 0.00019183695
0003c0 40 6a a2 37 22 e8 63 35 c1 74 d7 37 53 82 e7 37
       1.9361381e-05 8.490189e-07 2.5684365e-05 2.7598033e-05
0003d0 cd e4 53 35 04 7b dc 37 19 3b 69 37 9c 15 97 37
       7.8936574e-07 2.6283327e-05 1.3901642e-05 1.8010665e-05
0003e0 3d c6 08 38 8f a1 d3 35 38 7c 27 38 4e a3 15 38
       3.260955e-05 1.5767745e-06 3.993159e-05 3.5676458e-05
0003f0 1d 3b cb 35 86 60 1b 38 c9 c1 99 37 fa f3 9b 37
       1.5141883e-06 3.7044774e-05 1.832926e-05 1.859105e-05

exp_avg f4 [128]
000000 c1 5d 1b 3a e4 6e 01 3a 77 ca 55 3a 0f b5 18 3a
       0.0005926751 0.00049374835 0.0008155475 0.00058253197
000010 43 88 94 39 d7 ac 15 3a d4 49 0f 3a 51 38 8f ba
       0.00028330283 0.0005709654 0.00054660183 -0.0010926818
000020 a9 08 24 39 50 c2 ac b9 40 c9 04 3a 44 01 81 b9
       0.00015643485 -0.0003295117 0.0005065389 -0.0002460574
000030 60 fb 43 3b ec d0 b5 b9 10 1b b6 38 1f 62 4f 39
       0.002990447 -0.0003467867 8.683477e-05 0.00019777611
000040 eb 7e 4a 37 0a 1f 96 39 b3 d8 e3 3a 4f 91 75 3a
       1.2069689e-05 0.00028633355 0.0017383307 0.0009367661
000050 f3 1a d8 b9 45 3c f0 39 2d e2 b3 3a 12 b0 99 39
       -0.0004121881 0.00045821271 0.0013724022 0.00029313617
000060 f2 5c 64 3a 99 f2 e7 39 0d b1 8a 3a 8c 62 90 39
       0.00087113597 0.00044240503 0.001058133 0.00027539243
000070 17 0e 20 ba 5a 1f 46 39 e4 20 35 39 07 06 e3 39
       -0.0006105615 0.00018894431 0.00017273758 0.00043301305
000080 95 b0 14 3a 55 e2 9e 39 13 64 ce 39 e2 78 23 ba
       0.0005672065 0.0003030474 0.00039365943 -0.00062359695
000090 e9 91 17 3a f5 4f 9f 3a 88 0e 07 3b 0b 1d 83 39
       0.0005781935 0.0012154566 0.0020608027 0.00025007906
0000a0 71 5d 25 3a dc 9a 6c 3a d1 c1 a3 3a 2b e0 e6 3a
       0.00063081743 0.00090257614 0.0012493675 0.0017614415
0000b0 c4 b3 60 b8 5a 27 59 38 7f 33 31 3a ac cf 55 39
       -5.357318e-05 5.177348e-05 0.00067596877 0.00020390627
0000c0 37 7b c3 3a ad 49 a9 39 1b 99 b3 39 9a c0 91 ba
       0.001491404 0.00032289085 0.00034255613 -0.0011120022
0000d0 ef 22 5e ba 21 98 d2 39 a9 67 2b 3a fd 94 15 3a
       -0.00084738334 0.00040167666 0.0006538579 0.00057061
0000e0 7c f5 d7 b8 0c 03 04 b9 a5 7b 31 b6 2e a1 3b 3a
       -0.00010297724 -0.00012589636 -2.6447026e-06 0.00071575015
0000f0 e6 c0 06 3a f4 b7 75 3a f9 48 34 3a 2f 41 da b9
       0.00051404384 0.00093734195 0.0006877329 -0.00041628766
000100 6a e5 e8 38 5e 9b 3a ba 3e be 95 39 85 ea fd 3a
       0.00011105354 -0.00071184884 0.00028561236 0.001937226
000110 e1 7a 00 3b b3 87 cf 3a 81 e1 0e ba a3 89 e4 3a
       0.0019604492 0.0015833288 -0.0005450473 0.0017436038
000120 52 56 99 3a 43 65 ba 39 e2 a2 26 3a 95 27 84 b8
       0.0011698699 0.0003555213 0.0006356669 -6.301623e-05
000130 6b 35 0e 3a 7a 5b 23 39 39 50 6d 3a fc 78 25 3b
       0.000542483 0.00015578969 0.00090527866 0.0025249114
000140 36 6d 0a ba d6 31 17 b9 a9 ed fb 3a 57 c9 cb 3a
       -0.0005280556 -0.00014419048 0.0019220609 0.0015547675
000150 8d 95 e5 b9 4a b1 d1 b8 77 65 00 3b d9 6a f6 39
       -0.00043789708 -9.998919e-05 0.0019591728 0.00047000384
000160 9c 0f f2 b9 af f8 29 3a 76 a1 29 3a e7 8d 8a 39
       -0.00046169467 0.0006483895 0.0006470898 0.00026427137
000170 dd cf 40 ba 50 4e fa 3a 09 d3 aa 3a 66 19 ca b9
       -0.0007355193 0.0019096825 0.0013032864 -0.00038547366
000180 e1 3e 94 36 96 10 2f 3a 6f a6 95 b9 99 6f 5a ba
       4.418064e-06 0.0006678192 -0.00028543497 -0.00083326694
000190 5b ef 31 3a e7 87 4a 38 56 c5 a8 37 58 5b 02 3a
       0.0006787681 4.8287122e-05 2.0119052e-05 0.0004972718
0001a0 29 0b 80 39 9b 27 82 b9 71 35 21 ba e1 74 f4 39
       0.00024422377 -0.0002482504 -0.0006149626 0.00046626388
0001b0 fe dc f5 b9 f4 d0 59 3a 35 ea b6 39 fc 77 9c b9
       -0.00046894694 0.00083090295 0.00034888243 -0.00029844034
0001c0 27 b1 32 3a 8d 25 eb 38 98 e6 c3 3a c4 d1 17 38
       0.0006816559 0.000112126676 0.0014946042 3.6196565e-05
0001d0 ed 05 86 38 77 df c2 b8 04 58 dc 39 cc d4 e3 b8
       6.390722e-05 -9.2922644e-05 0.00042027247 -0.0001086384
0001e0 1f 2f 97 ba cd 0f 48 3a 6c b7 21 b8 8a 38 e8 39
       -0.0011534429 0.0007631749 -3.8556216e-05 0.00044292613
0001f0 2d 12 a2 39 9e b5 f3 b9 1f ff bd ba 06 66 b5 39
       0.0003091259 -0.00046483887 -0.0014495588 0.00034599024
