results/test01/RollerBall/checkpoint.pt (torch, 447522 bytes, 36 tensors)

network_body._body_endoder.seq_layers.0.weight f4 [128, 8]
0.22014199 0.32030523 -0.18289296 0.1893138 0.66069657 -0.02570332 -0.109932765 0.1196489
0.17225325 0.713574 0.29493445 -0.26544473 -0.44982526 -0.16863889 0.54019046 0.12398689
0.08478145 -0.42552066 0.14845991 0.32658687 0.14555474 0.056426678 0.24098878 0.27072406
0.18485668 0.008767794 0.17082098 0.2843701 -0.39668474 0.45344198 0.15160865 0.21565081
-0.066144876 -0.1342849 0.31997436 0.7370607 0.08294687 0.36898768 -0.6443789 -0.2789981
0.10058754 0.28617528 0.23850442 -0.058200922 -0.025695505 0.17825094 -0.22594516 0.21767914
0.60615915 0.15753767 0.13682358 -0.83185345 -0.16638066 -0.33425164 -0.030039718 0.07087878
-0.32735768 -0.45351467 0.6908666 -0.23494227 0.17303494 -0.14322212 -0.069851615 0.12497345
0.06231761 0.3808086 -0.22194736 -0.033592023 -0.36485624 -0.18338934 0.39524108 0.1869755
-0.18157002 0.11990976 0.22165234 0.13890864 0.5289792 -0.20687608 0.35309505 -0.20559984
-0.04716554 -0.37223268 -0.6187429 -0.7630494 0.0755125 0.0543985 -0.068677224 -0.07162588
-0.5318575 0.059266414 -0.15503897 -0.19427744 -0.2559696 0.5043863 0.2540318 0.08416275
-0.23572539 0.1738043 -0.13147354 0.25098723 -0.29041222 -0.11123225 -0.47970358 0.16728231
0.2945755 -0.17726082 -0.13996679 0.77230096 0.90499544 0.3880933 0.22482122 -0.23325872
-0.15912442 0.19774348 -0.11260844 -0.58229655 -0.08709955 0.3700205 -0.23992522 -0.4753004
0.28208727 -0.06734454 0.23743631 -0.42502683 0.48119038 0.5632494 0.607107 0.06813176
0.55176 -0.09716304 -0.3798195 -0.6235511 0.36105958 0.31109262 -0.2796196 0.7152058
0.19431539 -0.30571446 -0.2734845 -0.1742466 0.25169352 0.6704034 0.21542178 0.5601573
0.5016332 0.13815105 0.21509285 0.19200402 -0.05571084 -0.11259205 0.21673697 -0.54616874
0.31381896 -0.19244465 -0.61074734 -0.709531 -0.1011731 -0.23267815 -0.061747074 0.8444274
-0.5962485 -0.6274026 -0.3558561 0.45748016 -0.69735533 -0.10916125 0.07889074 0.03093585
-0.48616216 0.04797555 0.7103785 -0.17015274 0.3358715 -0.42113867 -0.07397742 -0.13666232
-0.08751035 -0.12179563 -0.25149846 0.47691658 -0.4964612 0.2583408 0.014813931 0.11532147
-0.3234998 -0.5120154 0.09405145 -0.5316824 -0.25050068 0.20739827 -0.13251498 0.12001843
-0.18241069 0.5935836 0.45393658 -0.11457567 -0.31251925 -0.07348245 0.40121874 -0.40056935
-0.021139834 0.28923914 -0.17313166 0.15507832 -0.462553 0.22489825 0.48053837 0.49683312
-0.34158283 -0.2226232 0.37690592 0.1393029 0.3121449 -0.264322 0.1737775 0.5083883
-0.3713828 0.34518224 -0.5183969 1.0576876 0.04361627 -0.6063169 -0.18210968 0.519199
0.46594837 0.08010159 0.23245107 0.18007186 0.37593418 0.22620356 0.21487747 0.5677663
-0.2538768 0.9256126 0.3924792 -0.003553692 -0.4239707 -0.37420994 0.23407094 -0.6963047
-0.690184 0.8672519 -0.53430676 -0.23636703 -0.7188884 1.0888418 0.46671954 0.1946137
0.022204759 0.35533702 -0.1568034 -0.53358173 -0.51650727 -0.6147974 0.023131855 -0.060072273
00000000: e76c 613e 0cff a33e 4b48 3bbe 7adb 413e
00000010: 6923 293f c58f d2bc 6e24 e1bd 7c0a f53d
00000020: 2863 303e c9ac 363f a601 973e 5fe8 87be
00000030: 7f4f e6be acaf 2cbe ec49 0a3f d7ec fd3d
00000040: e6a1 ad3d d8dd d9be e005 183e 6536 a73e
00000050: 4d0c 153e a91f 673d c3c5 763e 589c 8a3e
00000060: 124b 3d3e cba6 0f3c b2eb 2e3e f598 913e
00000070: 431a cbbe 8c29 e83e 4c3f 1b3e 91d3 5c3e
00000080: f776 87bd fb81 09be aed3 a33e 03b0 3c3f
00000090: 0ce0 a93d f4eb bc3e 04f6 24bf d7d8 8ebe
000000a0: d700 ce3d 9185 923e 813a 743e 1764 6ebd
000000b0: 617f d2bc 6a87 363e 2b5e 67be 48e7 5e3e
000000c0: 3f2d 1b3f 8e51 213e 7b1b 0c3e 59f4 54bf
000000d0: b15f 2abe 0823 abbe db15 f6bc e528 913d
000000e0: 6d9b a7be 1333 e8be a2dc 303f b594 70be
000000f0: 1230 313e d2a8 12be 5d0e 8fbd 15f2 ff3d
00000100: c040 7f3d 58f9 c23e 2b46 63be ca97 09bd
00000110: 70ce babe 6aca 3bbe 0a5d ca3e 8176 3f3e
00000120: 7eed 39be 4093 f53d d5f8 623e 113e 0e3e
00000130: 2e6b 073f 53d7 53be e0c8 b43e c488 52be
00000140: a730 41bd 4895 bebe ef65 1ebf 3557 43bf
00000150: 4ca6 9a3d f6d0 5e3d a5a6 8cbd 97b0 92bd
00000160: d027 08bf 57c1 723d 89c2 1ebe aaf0 46be
00000170: 730e 83be 761f 013f 7510 823e 855d ac3d
00000180: ff61 71be c1f9 313e 00a1 06be 6681 803e
00000190: e9b0 94be bccd e3bd b59b f5be 0e4c 2b3e
000001a0: 9ad2 963e dc83 35be 7453 0fbe 84b5 453f
000001b0: c8ad 673f 2ab4 c63e 8937 663e 60db 6ebe
000001c0: 83f1 22be 447d 4a3e 419f e6bd 6311 15bf
000001d0: 4061 b2bd 5473 bd3e f5ae 75be 935a f3be
000001e0: be6d 903e efeb 89bd 8122 733e 1e9d d9be
000001f0: 965e f63e 1d31 103f 5d6b 1b3f aa88 8b3d
00000200: 2540 0d3f 6afd c6bd b477 c2be 0ba1 1fbf
00000210: cddc b83e 8847 9f3e 4d2a 8fbe ba17 373f
00000220: 9dfa 463e 9b86 9cbe 2906 8cbe b36d 32be
00000230: f9dd 803e 8f9f 2b3f 8797 5c3e 7866 0f3f
00000240: 096b 003f 7877 0d3e 4d41 5c3e b49c 443e
00000250: 0d31 64bd a996 e6bd 4cf0 5d3e b7d1 0bbf
00000260: e1ac a03e 3610 45be f059 1cbf d3a3 35bf
00000270: d833 cfbd 2e43 6ebe 80ea 7cbd 652c 583f
00000280: bea3 18bf 759d 20bf c532 b6be d73a ea3e
00000290: e185 32bf ef8f dfbd 7891 a13d 2e6d fd3c
000002a0: 3fea f8be 0382 443d 5edb 353f 853c 2ebe
000002b0: 59f7 ab3e 7d9f d7be 7981 97bd 35f1 0bbe
000002c0: a038 b3bd fd6f f9bd 68c4 80be 692e f43e
000002d0: 2a30 febe 3f45 843e 21b6 723c aa2d ec3d
000002e0: c4a1 a5be 7113 03bf 0c9e c03d 561c 08bf
000002f0: a041 80be 3660 543e 02b2 07be 39cc f53d
00000300: dec9 3abe 18f5 173f 606a e83e a6a6 eabd
00000310: 8602 a0be f77d 96bd 8b6c cd3e 6d17 cdbe
00000320: 722d adbc 2717 943e 6d49 31be dacc 1e3e
00000330: bfd3 ecbe ba4b 663e 2009 f63e e960 fe3e
00000340: f2e3 aebe 56f7 63be d0f9 c03e 6ba5 0e3e
00000350: 75d1 9f3e 3755 87be bbf2 313e bc25 023f
00000360: e325 bebe babb b03e a9b5 04bf 4f62 873f
00000370: f9a6 323d 9637 1bbf f67a 3abe 3aea 043f
00000380: c990 ee3e 4d0c a43d a707 6e3e c264 383e
00000390: 727a c03e e8a1 673e d708 5c3e 2259 113f
000003a0: 24fc 81be f3f4 6c3f 09f3 c83e 0fe5 68bb
000003b0: b012 d9be 7298 bfbe 4bb0 6f3e 0641 32bf
000003c0: e6af 30bf 3804 5e3f 54c8 08bf 330a 72be
000003d0: 1209 38bf 2b5f 8b3f ddf5 ee3e d048 473e
000003e0: c1e6 b53c bcee b53e 1291 20be d098 08bf
000003f0: d239 04bf 5d63 1dbf 047f bd3c 580e 76bd

network_body._body_endoder.seq_layers.0.bias f4 [128]
0.0028355953 -0.016411727 -0.019955695 -0.039795756 -0.02075332 -0.024163775 0.076624654 -0.0034484672
-0.027820759 0.04733908 0.0035890208 0.056091547 -0.018148383 -0.022348082 -0.055311438 -0.020429434
0.0921235 -0.014084193 -0.050075904 0.075522654 0.008594964 0.046195254 -0.038013164 -0.010063549
0.04056016 0.009221186 0.0056357286 -0.00809709 -0.059855565 0.071286745 0.079131864 0.052218746
-0.0113624325 0.04170968 -0.02417358 -0.07209495 -0.0024136005 0.010092216 0.051720683 -0.059973706
0.07528271 -0.021681502 0.035832353 -0.0057442468 0.035940703 -0.039592836 0.043174196 0.008410161
0.053735603 0.015375852 -0.017911492 -0.0026455028 0.06144726 0.022459425 0.04615098 0.011009627
0.09101089 -0.008006787 0.038292523 -0.002470035 -0.009643637 -0.03536759 -0.092799604 0.01621397
0.026886752 0.014749088 0.015959911 -0.02317683 0.0399082 0.033814244 0.03510269 0.05701945
0.04109891 0.008534059 -0.013699434 0.056697313 0.039428156 -0.0028811903 0.029322026 0.021202957
0.021246364 -0.020788765 0.047296032 0.0064152945 0.017415276 -0.061726946 0.028771596 0.02118588
0.03557484 0.084247634 0.04769748 0.029380174 -0.0034223946 -0.012968051 0.00833953 0.078218184
0.055405274 -0.0434767 -0.02118249 -0.016757088 0.027762804 -0.017647536 0.06373556 0.073839426
0.0131851 0.0069547314 0.04986338 0.041357372 0.018389074 0.013987269 0.04177965 0.034080118
-0.028705075 0.03495544 -0.019438524 0.0037553164 0.0033501673 0.009062602 0.062238317 0.010763581
-0.039692525 -0.06696823 0.03883949 -0.0013287514 0.010635036 0.07684808 0.049978163 0.027463814
00000000: 65d5 393b e371 86bc 207a a3bc e000 23bd
00000010: de02 aabc 1cf3 c5bc 63ed 9c3d aeff 61bb
00000020: 5ce8 e3bc a0e6 413d c735 6b3b 40c0 653d
00000030: ebab 94bc 5313 b7bc 3f8e 62bd a15b a7bc
00000040: 3fab bc3d 63c1 66bc 641c 4dbd 9fab 9a3d
00000050: e4d1 0c3c 3c37 3d3d b1b3 1bbd 95e1 24bc
00000060: 6922 263d 7514 173c ebab b83b a8a9 04bc
00000070: 1c2b 75bd c9fe 913d e30f a23d 53e3 553d
00000080: 7f29 3abc c5d7 2a3d ac07 c6bc 84a6 93bd
00000090: 7f2d 1ebb d259 253c 11d9 533d fda6 75bd
000000a0: d22d 9a3d 689d b1bc f2c4 123d 3c3a bcbb
000000b0: 8f36 133d 192c 22bd 6dd7 303d c6ca 093c
000000c0: dd19 5c3d ffea 7b3c 1fbb 92bc 2c60 2dbb
000000d0: 1fb0 7b3d d4fc b73c cf08 3d3d b961 343c
000000e0: eb63 ba3d e62e 03bc 9fd8 1c3d 50e0 21bb
000000f0: 5800 1ebc 9bdd 10bd b80d bebd 29d3 843c
00000100: 9b41 dc3c 29a6 713c 5cbe 823c 56dd bdbc
00000110: c876 233d ce80 0a3d d7c7 0f3d 3a8d 693d
00000120: 5557 283d 70d2 0b3c 9773 60bc 713b 683d
00000130: 6b7f 213d 5ad2 3cbb bf34 f03c d3b1 ad3c
00000140: db0c ae3c 334d aabc 7cb9 413d 6437 d23b
00000150: 7baa 8e3c 65d5 7cbd 69b2 eb3c 038e ad3c
00000160: ecb6 113d 068a ac3d 6f5e 433d b1ae f03c
00000170: 414a 60bb f377 54bc 86a2 083c db30 a03d
00000180: a4f0 623d a014 32bd e786 adbc 2946 89bc
00000190: d26e e33c 9191 90bc ca87 823d 2039 973d
000001a0: 5106 583c 84e4 e33b 8b3d 4c3d 5966 293d
000001b0: afa4 963c dc2a 653c 2321 2b3d 9897 0b3d
000001c0: e826 ebbc 6f2d 0f3d 8a3d 9fbc c11b 763b
000001d0: 7b8e 5b3b 4f7b 143c 9bed 7e3d bb59 303c
000001e0: a194 22bd a426 89bd 2816 1f3d 8029 aeba
000001f0: 933e 2e3c 8762 9d3d e7b5 4c3d cbfb e03c

network_body._body_endoder.seq_layers.2.weight f4 [128, 128]
-0.07335614 0.04096221 0.12459649 0.009749613 0.0366866 0.16397864 -0.037167422 -0.18605673
-0.12903187 0.12317089 -0.24251989 -0.052011535 0.05466358 -0.020465096 0.0945858 0.009735813
0.017186577 0.14449607 0.041351452 -0.089558184 0.015703114 0.16258277 0.028283676 -0.18356803
-0.059577446 -0.012109593 0.04496857 -0.044702582 0.005456523 0.17934413 0.028920166 -0.0890109
0.004922609 0.11502338 0.19737506 0.07381551 0.07583157 0.06587036 0.049084608 -0.099971466
-0.05308123 -0.092328206 0.09058626 0.017828194 -0.19565716 0.07894735 0.081181616 0.21043605
-0.15848574 -0.0894624 -0.054755438 0.051783595 0.0786063 -0.076420374 0.016142044 0.0002891756
0.1425371 -0.032482512 -0.11727787 -0.11246706 -0.06295472 -0.10698011 -0.077517614 -0.003758256
-0.14887884 0.03009922 -0.079955965 0.065090425 0.033335887 -0.21743909 -0.002654825 0.026935183
-0.28499562 0.024753766 -0.090844244 -0.20038041 0.040596448 0.0672801 -0.1711757 0.0661631
0.022333013 0.12708102 0.011973323 -0.10014343 -0.08180398 0.07589132 -0.13370751 0.08594561
-0.08785305 -0.13233598 0.005667862 0.06735488 0.17955412 -0.13419722 -0.11476446 -0.16311067
-0.011477758 -0.1014117 -0.113259114 0.2042708 -0.000104554216 -0.06376667 -0.10225107 0.055103347
-0.0866991 -0.01646134 -0.032998536 -0.15577352 -0.029307073 -0.026523765 -0.05967373 0.081138514
-0.08935255 -0.033612482 -0.022759559 0.0750268 -0.09367782 -0.11991394 -0.10740238 0.012021477
0.072935246 0.15294483 0.03845976 0.14125276 -0.014970027 -0.08795619 0.10470438 -0.026251206
-0.07505306 -0.075900294 0.010632827 0.016505092 -0.048011113 0.037651766 0.012914612 -0.08031906
-0.03204131 -0.17521897 -0.028380133 0.028582174 -0.08899731 0.062350728 -0.034321368 -0.047847297
0.10222475 0.09404398 -0.014628454 -0.066493526 0.09353409 0.05893019 0.049622595 -0.03259232
-0.132398 -0.0127209 -0.20269467 -0.05196309 0.08793164 -0.1076447 0.13351008 -0.035291668
-0.093742855 0.057726875 -0.13442698 -0.0337978 -0.05941823 0.1160908 -0.08592712 0.05548354
0.10771912 0.123802416 -0.090855636 0.033691697 -0.07097674 0.010644173 0.12999043 0.002462057
0.20604116 -0.065038465 -0.061205108 0.111459054 0.011346193 0.083818406 0.03127244 0.038093682
0.059021402 -0.0803008 -0.036517836 -0.1572984 0.07250205 0.2340171 0.0154373385 -0.07224484
-0.0706917 -0.054753043 -0.082713805 -0.11727175 -0.073769726 0.099133596 0.22937085 -0.094611764
-0.048982967 -0.011533838 0.057993688 0.13776481 0.084370874 0.059639618 0.17345484 -0.03215279
-0.110078335 0.08763163 -0.01815238 -0.07398795 -0.0042996374 -0.0040955693 0.1613127 0.030048015
-0.18300392 0.1760481 -0.08881505 -0.07966242 -0.20159863 -0.02376695 0.09279252 -0.0077968356
-0.05972224 -0.036058106 -0.048587166 -0.06423542 -0.09033 -0.010505997 -0.021507422 -0.010647693
0.23762211 -0.073475316 0.15880504 -0.033490784 0.080379955 0.029554602 -0.17996931 0.0045879646
0.06260211 -0.07976113 -0.010440752 -0.020111723 -0.03222353 0.0063070795 0.2005959 0.012290142
0.13090333 -0.10507278 -0.30209932 0.07906958 -0.15955672 0.10243278 0.02826987 -0.043882556
00000000: be3b 96bd fec7 273d 722c ff3d d7bc 1f3c
00000010: b044 163d 04ea 273e de3c 18bd a885 3ebe
00000020: ee20 04be 0541 fc3d 2257 78be 0c0a 55bd
00000030: ebe6 5f3d 6ba6 a7bc 33b6 c13d f682 1f3c
00000040: ddca 8c3c c7f6 133e 2460 293d 486a b7bd
00000050: d1a3 803c 197c 263e 2bb3 e73c 42f9 3bbe
00000060: 7b07 74bd 5067 46bc f730 383d 0e1a 37bd
00000070: a2cc b23b fda5 373e fce9 ec3c 594b b6bd
00000080: d64d a13b 6191 eb3d b01c 4a3e 962c 973d
00000090: 954d 9b3d 0ae7 863d f10c 493d d7bd ccbd
000000a0: b46b 59bd 9216 bdbd 4a85 b93d 6f0c 923c
000000b0: 5a5a 48be 26af a13d 8c42 a63d 8c7c 573e
000000c0: 164a 22be 1038 b7bd 3d47 60bd 091b 543d
000000d0: 57fc a03d 4982 9cbd 523c 843c 7e9c 9739
000000e0: 3ff5 113e 620c 05bd 612f f0bd 2155 e6bd
000000f0: 67ee 80bd 6318 dbbd 8ec1 9ebd 134d 76bb
00000100: b273 18be a492 f63c f4bf a3bd 214e 853d
00000110: 368b 083d 5aa8 5ebe 93fc 2dbb 2ca7 dc3c
00000120: f2ea 91be 69c8 ca3c 8c0c babd 8630 4dbe
00000130: 7648 263d 26ca 893d af48 2fbe 8580 873d
00000140: b9f3 b63c 8721 023e c22b 443c 0018 cdbd
00000150: d888 a7bd e96c 9b3d 9fea 08be 4104 b03d
00000160: 4dec b3bd 1583 07be 79b9 b93b 5bf1 893d
00000170: 09dd 373e ff6a 09be a109 ebbd 7c06 27be
00000180: 350d 3cbc f0b0 cfbd 65f4 e7bd 5d2c 513e
00000190: 1e44 dbb8 1a98 82bd 0269 d1bd 0cb4 613d
000001a0: 4c8f b1bd efd9 86bc 7929 07bd 1883 1fbe
000001b0: 6315 f0bc 5e48 d9bc 716c 74bd f32b a63d
000001c0: 78fe b6bd 3ead 09bd 4172 babc a7a7 993d
000001d0: 28da bfbd 7195 f5bd c7f5 dbbd bbf5 443c
000001e0: 135f 953d 929d 1c3e fb87 1d3d 90a4 103e
000001f0: d844 75bc 6022 b4bd 406f d63d c50c d7bc
00000200: 6bb5 99bd 9d71 9bbd 4f35 2e3c b035 873c
00000210: 4da7 44bd bd38 1a3d cf97 533c 527e a4bd
00000220: c03d 03bd 9a6c 33be 747d e8bc 2a25 ea3c
00000230: 3944 b6bd 7a63 7f3d 9094 0cbd 87fb 43bd
00000240: 365b d13d 219a c03d 2fac 6fbc c22d 88bd
00000250: cd8e bf3d c860 713d 1041 4b3d 867f 05bd
00000260: 5793 07be 526b 50bc 318f 4fbe 40d7 54bd
00000270: 8115 b43d d374 dcbd deb6 083e ff8d 10bd
00000280: 41fc bfbd 0473 6c3d 3aa7 09be 906f 0abd
00000290: 8860 73bd 03c1 ed3d 8ffa afbd b542 633d
000002a0: d89b dc3d 1f8c fd3d 8512 babd 4e00 0a3d
000002b0: 415c 91bd e664 2e3c 361c 053e 765a 213b
000002c0: 74fc 523e e332 85bd 35b2 7abd a544 e43d
000002d0: 62e5 393c fca8 ab3d 8817 003d 1f08 1c3d
000002e0: 6dc0 713d bf74 a4bd ba93 15bd d512 21be
000002f0: f47b 943d 2ea2 6f3e e4ec 7c3c 1af5 93bd
00000300: cfc6 90bd ba44 60bd db65 a9bd 2c2c f0bd
00000310: 9514 97bd 8e06 cb3d 31e0 6a3e d0c3 c1bd
00000320: 5da2 48bd 6cf8 3cbc ca8a 6d3d 3812 0d3e
00000330: a3ca ac3d ac48 743d 259e 313e a5b2 03bd
00000340: c070 e1bd 3678 b33d 4db4 94bc ff86 97bd
00000350: f9e3 8cbb 2034 86bb 282f 253e 4127 f63c
00000360: 6165 3bbe f445 343e aae4 b5bd 0d26 a3bd
00000370: df6f 4ebe e8b2 c2bc 010a be3d 997c ffbb
00000380: 4f9f 74bd aab1 13bd 5603 47bd dc8d 83bd
00000390: effe b8bd 5821 2cbc 5530 b0bc a973 2ebc
000003a0: 3653 733e 3a7a 96bd ca9d 223e a22d 09bd
000003b0: 3f9e a43d 7e1c f23c e049 38be a356 963b
000003c0: 8935 803d ce59 a3bd b00f 2bbc 57c1 a4bc
000003d0: d2fc 03bd 9eab ce3b 0369 4d3e 975c 493c
000003e0: 860b 063e 6630 d7bd c3ac 9abe 3bef a13d
000003f0: d662 23be 47c8 d13d 3796 e73c 32be 33bd

network_body._body_endoder.seq_layers.2.bias f4 [128]
-0.005319214 0.02079331 0.041466355 -0.027599148 0.03160242 0.03018765 0.0023583192 -0.013118026
0.008225024 0.034529034 0.0130249085 0.035043277 0.049115416 0.002755588 0.039919257 -0.039051294
0.011220233 0.06084015 0.017349726 0.027058538 0.087749824 0.014188059 0.06092979 0.015027798
0.0054654996 0.036800988 0.00084430823 0.025881808 -0.008853243 0.04828226 0.027233839 0.01877166
0.0360861 0.015759967 0.036292326 0.011021449 -0.042514462 0.003668781 -0.0142752845 0.052916873
-0.02002156 0.03442062 0.0037531601 0.04923826 0.039505117 0.014109597 0.023646343 0.04898593
0.018921584 0.059747234 -0.013401995 0.037712116 0.026361113 -0.017419506 0.02698014 0.009909324
0.06186221 -0.034309655 0.04007935 0.05284399 0.065685794 0.06355811 -0.011041139 -0.028973723
0.047234975 0.0012729819 0.022085618 0.055324767 0.037648067 0.049495433 0.046413366 0.07617323
0.020934355 0.028456395 0.008064456 0.01199359 0.013811575 0.021198492 0.051457074 0.026871732
0.041790765 0.010235647 0.06693858 0.04973827 0.025104715 0.067685135 0.014505582 0.047681417
0.024279384 0.041764688 -0.0018911907 0.013869526 -0.0028908607 0.058439285 0.017882105 0.03387883
0.011611594 0.05026273 0.023880327 0.023329005 0.046492614 0.027927743 0.055255596 -0.0026738374
0.02480365 -0.010890336 0.011935041 -0.01038937 0.044178132 0.015646353 0.019127842 0.073640816
-0.017848443 0.035409484 0.027219214 0.0472431 -0.0013166277 0.0062076785 -0.00746922 -0.005399744
-0.03605703 0.026348285 0.007617174 0.016860241 -0.002818159 -0.005976394 0.025663966 -0.061690316
00000000: cd4c aebb bb56 aa3c a0d8 293d 9c17 e2bc
00000010: 8a71 013d 174c f73c 088e 1a3b fdec 56bc
00000020: 40c2 063c 516e 0d3d 6d66 553c 8a89 0f3d
00000030: 3f2d 493d 1897 343b 6082 233d 40f4 1fbd
00000040: 11d5 373c 8533 793d 0321 8e3c dea9 dd3c
00000050: 2eb6 b33d 0875 683c 8491 793d 2737 763c
00000060: ef17 b33b a2bc 163d 9154 5d3a 1606 d43c
00000070: 310d 11bc 9ec3 453d 8019 df3c 06c7 993c
00000080: 05cf 133d 0c1b 813c 43a7 143d 4f93 343c
00000090: a523 2ebd ee6f 703b e2e2 69bc 5dbf 583d
000000a0: 4104 a4bc a3fc 0c3d 94f7 753b 0fae 493d
000000b0: 1ed0 213d f02b 673c fab5 c13c 78a5 483d
000000c0: 7001 9b3c 84b9 743d 0b94 5bbc 0578 1a3d
000000d0: 43f3 d73c 5ab3 8ebc 7405 dd3c b85a 223c
000000e0: 3b63 7d3d 4888 0cbd 3f2a 243d f172 583d
000000f0: 4686 863d c12a 823d e5e5 34bc 4d5a edbc
00000100: 7679 413d 2fda a63a e6ec b43c 399c 623d
00000110: dc34 1a3d b9bb 4a3d f11b 3e3d b600 9c3d
00000120: 867e ab3c 631d e93c c820 043c c380 443c
00000130: f249 623c 76a8 ad3c a7c4 523d 1b22 dc3c
00000140: cb2c 2b3d 6ab3 273c 1817 893d 5bba 4b3d
00000150: 67a8 cd3c 819e 8a3d d2a8 6d3c 974d 433d
00000160: 8fe5 c63c 7311 2b3d d4e1 f7ba 023d 633c
00000170: 9874 3dbb 085e 6f3d 7e7d 923c 87c4 0a3d
00000180: 8e3e 3e3c 4be0 4d3d ada0 c33c 781c bf3c
00000190: 0a6f 3e3d b9c8 e43c b153 623d 8c3b 2fbb
000001a0: 0631 cb3c 616d 32bc 318b 433c 2d38 2abc
000001b0: 21f4 343d c82c 803c feb1 9c3c ffd0 963d
000001c0: e636 92bc 8909 113d d4fa de3c fb81 413d
000001d0: b292 acba c869 cb3b 5cc0 f4bb 56f0 b0bb
000001e0: 89b0 13bd 5cd8 d73c 7d99 f93b 7d1e 8a3c
000001f0: ddb0 38bb a0d5 c3bb 3d3d d23c fcae 7cbd

action_model._continuous_distribution.log_sigma f4 [1, 2]
-0.062681 -0.15360853
00000000: e55e 80bd 8e4b 1dbe

action_model._continuous_distribution.mu.weight f4 [2, 128]
-0.045735892 0.0017318865 0.0067660552 -0.017934283 0.04442967 -0.07069296 -0.013899419 -0.004531626
0.032672632 -0.0015182741 0.0017678346 -0.05744386 -0.03471747 -0.039843246 -0.024501223 -0.02827713
0.050179094 0.037635084 0.034365103 0.01821254 -0.10705255 0.03486682 0.088933714 -0.015033385
0.010673001 -0.06374591 0.03314366 0.05395431 -0.036018983 -0.06359324 0.06765808 0.05214869
0.052201714 0.0323348 0.075955436 -0.011673193 -0.0002595402 0.0025812995 -0.013762229 0.0773456
-0.010597848 -0.04992663 -0.012750067 -0.06754811 0.036681738 0.020173416 0.035079774 0.05947973
0.038562182 -0.028505385 0.0075678136 0.050857823 -0.051720876 0.07569268 -0.021664102 0.0049481513
-0.07375393 -0.020719642 0.069735445 0.047208197 0.0740072 -0.11215901 -0.014228616 -0.012300186
-0.003529556 -0.03365523 0.005777327 0.0065865912 -0.016630989 0.05882174 0.061219208 0.08835178
0.028783634 -0.017933074 -0.040038228 0.017082818 -0.014441321 0.031448457 -0.033027686 0.06125768
0.04363407 0.005786571 0.07133357 -0.0513906 0.055529226 0.06161727 0.026286887 -0.066394515
0.0186534 0.08144555 0.015122439 0.032669492 0.019992065 -0.05081918 -0.057825193 -0.03741463
0.019970397 -0.066652335 0.06213236 0.0483375 0.066765815 -0.033247113 0.07142414 0.028325899
-0.04221941 -0.010266108 -0.06789567 -0.025864296 0.0789337 0.028347379 -0.018531557 -0.11040802
0.017987877 -0.057678863 0.06293321 -0.066578746 -0.019577695 -0.059279192 -0.042862136 -0.02545028
-0.0075671785 0.04219167 0.008699327 0.03508989 0.00906511 -0.054711673 -0.0070068073 -0.0033374855
0.010726344 -0.09870536 -0.055824 0.0015169658 0.007801729 -0.018094085 0.029032169 0.020015702
-0.028768798 -0.0672406 0.051222734 -0.061513603 -0.087462164 0.016537165 -0.03701541 0.014676446
0.028379636 -0.078124955 -0.0048281755 -0.053692937 -0.056133877 -0.037435938 -0.03872162 0.030257495
-0.008439987 0.046435427 -0.017462889 0.0064445813 0.037125237 -0.0678726 0.022295604 -0.00023364904
-0.0740417 -0.04563984 0.02451214 -0.04005456 -0.0077310815 -0.04757216 0.03862625 -0.010262874
0.017497586 -0.020958703 -0.023655275 -0.02600809 0.0051217456 0.044998053 -0.01420636 -0.025240414
-0.019221764 -0.056037117 -0.0034180277 -0.04702772 -0.01950125 0.017712986 0.07292983 0.054264538
-0.01633981 -0.002894317 0.010705523 0.046795473 0.04861665 -0.020114506 0.045461398 -0.010734331
-0.057785846 0.048712097 -0.040242106 -0.10620815 -0.084043674 -0.0416549 -0.017174082 -0.012122707
0.033788733 -0.034436595 0.013326276 0.027481798 0.05524107 0.046664488 0.10558303 -0.029602043
-0.056798484 0.05728909 0.001686214 0.05793232 -0.039205518 -0.033411253 0.0038928068 0.069324344
-0.05288743 0.011598682 -0.0055885827 -0.005772056 0.033636194 -0.0686873 0.06663575 -0.04815426
-0.02397156 -0.021115677 -0.0045966837 -0.010900907 -0.03718539 0.049067758 0.027621046 0.035828788
0.07638463 -0.014570151 0.026458854 -0.001129343 0.006254037 -0.04007858 -0.046967193 -0.05927796
0.021609448 -0.029497268 -0.04469954 0.064637184 -0.023397699 -0.03180607 0.03699223 -0.019384637
0.010808056 -0.03468586 -0.04215966 0.00812091 0.0068962323 0.025383478 -0.030178536 0.0066222576
00000000: 8f55 3bbd 7800 e33a c9b5 dd3b ebea 92bc
00000010: e3fb 353d 78c7 90bd 64ba 63bc 097e 94bb
00000020: bdd3 053d d300 c7ba b0b6 e73a 414a 6bbd
00000030: e833 0ebd ac32 23bd cab6 c8bc 71a5 e7bc
00000040: 9888 4d3d 3f27 1a3d 6cc2 0c3d 7732 953c
00000050: 5e3e dbbd 83d0 0e3d e122 b63d 964e 76bc
00000060: d0dd 2e3c 378d 82bd a5c1 073d 32ff 5c3d
00000070: a488 13bd 2c3d 82bd 5290 8a3d dd99 553d
00000080: 77d1 553d 7f71 043d 868e 9b3d ec40 3fbc
00000090: e512 88b9 052b 293b f97a 61bc 5f67 9e3d
000000a0: 99a2 2dbc de7f 4cbd a8e5 50bc aa56 8abd
000000b0: 973f 163d b842 a53c cfaf 0f3d 04a1 733d
000000c0: 61f3 1d3d 2084 e9bc 6cfb f73b 4b50 503d
000000d0: 45d9 53bd c404 9b3d ea78 b1bc 1a24 a23b
000000e0: 4d0c 97bd 3dbc a9bc 75d1 8e3d 625d 413d
000000f0: 1691 973d 9fb3 e5bd 241f 69bc b886 49bc
00000100: 2050 67bb 11da 09bd bb4f bd3b 55d4 d73b
00000110: b63d 88bc 11ef 703d fec0 7a3d c7f1 b43d
00000120: a8cb eb3c 62e8 92bc 20ff 23bd 44f1 8b3c
00000130: 4a9b 6cbc 19d0 003d 0a48 07bd 55e9 7a3d
00000140: a3b9 323d 479d bd3b 5617 923d f37e 52bd
00000150: 9d72 633d 6462 7c3d 9957 d73c d9f9 87bd
00000160: 04cf 983c edcc a63d 1bc4 773c 72d0 053d
00000170: 66c6 a33c c627 50bd 1cda 6cbd 1540 19bd
00000180: f598 a33c 0581 88bd 807e 7e3d 8bfd 453d
00000190: 84bc 883d 202e 08bd d246 923d b70b e83c
000001a0: 43ee 2cbd 2e33 28bc e30c 8bbd 5ce1 d3bc
000001b0: fea7 a13d c338 e83c 7ecf 97bc 9a1d e2bd
000001c0: 505b 933c ac40 6cbd 20e3 803d 705a 88bd
000001d0: 6761 a0bc bdce 72bd 3590 2fbd 1b7d d0bc
000001e0: 18f6 f7bb 2cd1 2c3d 9f87 0e3c 6bba 0f3d
000001f0: d485 143c 5919 60bd 5c99 e5bb b7b9 5abb
00000200: 8cbd 2f3c 0926 cabd b5a7 64bd edd4 c63a
00000210: a5a5 ff3b 0c3a 94bc dfd4 ed3c f8f7 a33c
00000220: 8bac ebbc 71b5 89bd eece 513d b0f5 7bbd
00000230: 5d1f b3bd f378 873c 789d 17bd 7a75 703c
00000240: 697c e83c faff 9fbd ac35 9ebb 20ed 5bbd
00000250: a3ec 65bd 6d56 19bd 909a 1ebd 91de f73c
00000260: df47 0abc 1333 3e3d 550e 8fbc 112d d33b
00000270: a210 183d ca00 8bbd 45a5 b63c b0ff 74b9
00000280: 2da3 97bd d7f0 3abd afcd c83c 4010 24bd
00000290: 0355 fdbb 06db 42bd 8f36 1e3d 9d25 28bc
000002a0: 1957 8f3c 96b1 abbc b5c8 c1bc eb0e d5bc
000002b0: 51d4 a73b e14f 383d cbc1 68bc fcc4 cebc
000002c0: f676 9dbc 2d87 65bd fd00 60bb 23a0 40bd
000002d0: 16c1 9fbc d31a 913c 3c5c 953d 7e44 5e3d
000002e0: 11db 85bc 95ae 3dbb 3866 2f3c 9cac 3f3d
000002f0: 4122 473d 2dc7 a4bc bb35 3a3d 0cdf 2fbc
00000300: dab0 6cbd 5686 473d e8d4 24bd a983 d9bd
00000310: 171f acbd 549e 2abd a9b0 8cbc 529e 46bc
00000320: 0e66 0a3d 630d 0dbd 7456 5a3c 8221 e13c
00000330: 7644 623d 4323 3f3d ea3b d83d fc7f f2bc
00000340: 87a5 68bd f7a7 6a3d f403 dd3a 714a 6d3d
00000350: f795 20bd 3dda 08bd 761e 7f3b ecf9 8d3d
00000360: 7da0 58bd 6608 3e3c 6e20 b7bb 8423 bdbb
00000370: 1bc6 093d edab 8cbd 5378 883d 673d 45bd
00000380: 0160 c4bc c9fa acbc c79f 96bb b899 32bc
00000390: b54f 18bd 46fb 483d 8845 e23c 35c1 123d
000003a0: 8b6f 9c3d a5b7 6ebc 3dc0 d83c 7706 94ba
000003b0: aaee cc3b 7029 24bd ac60 40bd 72cd 72bd
000003c0: 4c06 b13c 41a4 f1bc dd16 37bd 8060 843d
000003d0: 88ac bfbc 1547 02bd 2a85 173d 88cc 9ebc
000003e0: 4614 313c c312 0ebd 9caf 2cbd 910d 053c
000003f0: caf9 e13b 03f1 cf3c fa38 f7bc 86ff d83b

action_model._continuous_distribution.mu.bias f4 [2]
0.018747304 -0.012496592
00000000: f293 993c 81be 4cbc

exp_avg f4 [128, 8]
0.0042548236 7.254616e-05 -0.002446831 -0.0027712968 6.608553e-05 0.002136033 0.004947923 0.00022824956
-0.0014214684 0.00052440277 -0.00031163092 -0.0017749663 0.000524072 0.001765921 0.0003500793 7.424705e-05
0.003486123 -0.0002622716 0.000745709 -0.0014040206 -0.00025474263 -0.0016555736 -0.00048732496 0.00012903783
0.00017165815 -0.0003325941 0.000418174 0.0019721189 -0.00033154225 -0.00088545436 -0.0007908668 -0.00018922925
0.00444171 -0.00072576076 -0.0036287627 -0.0017610944 -0.0007168914 -0.0038066276 -0.0012860216 -0.0016463054
-0.0024988123 1.4972221e-06 -0.0004269812 -0.002488338 4.8615357e-07 0.003174677 0.0007331912 -0.0013960021
0.0019801813 0.0001294822 -0.009010675 -0.0033292465 0.00013131727 0.001966584 -0.00090972986 -0.007828817
0.0025637804 0.0003791992 -0.0014577885 0.0007341893 0.00037866712 -0.0044559017 -0.0037893862 0.0035455364
0.0018722876 2.2051443e-05 0.0008722591 0.00020949537 2.2832877e-05 -0.00050890987 -0.00055390416 0.001958674
0.007961052 -0.0004950905 -0.0019403928 -0.0046300213 -0.00048196776 -0.0046754223 -0.0031420125 0.0010663348
0.0014516034 0.00063928723 -0.0010536009 -0.002708615 0.00063943426 0.0038226356 -0.0005375106 -0.0017900255
0.0026404758 -0.0012196325 0.0009925365 0.0019023081 -0.0012208599 -0.005383253 -0.0019340377 -0.004478973
-0.0010339576 -2.9870815e-05 0.0015033764 -0.0007692251 -3.032143e-05 0.0016454606 0.0014714939 -0.00031990343
0.00038932604 8.644273e-05 0.0008527818 -0.00043407656 8.642426e-05 0.00023240077 -0.00078257953 0.001587169
-0.0015141373 0.001118889 0.00021294519 -0.0040236483 0.0011193387 0.0071214633 -0.00016273317 0.0012991896
-0.0064787557 0.00032212381 -0.00024709268 0.0007926335 0.0003182433 0.0047351783 -0.0027253255 0.00036905013
0.004482823 -0.00087701506 -0.010045917 -0.0020761339 -0.0008744142 0.0022657379 -0.0033557692 -0.005699152
-0.002777643 0.00065824005 0.00073264836 0.0009909448 0.0006546128 0.005531573 -0.00012654906 0.0023775683
0.0011333382 0.0001481461 -0.0021788417 -0.0017568222 0.00014719166 0.0011921907 0.00045908467 -0.0023491876
0.0073476885 -2.690778e-05 -0.005957172 -0.002511601 -2.6398684e-05 -0.0006962855 -0.00023064195 -0.0036112533
0.0015306569 -0.00011517928 -0.0031437296 3.8557555e-05 -0.0001117274 -0.0028117846 -0.003976161 -0.0030711077
0.0013783018 0.0005169807 0.0009514074 -0.0005632445 0.0005165457 -0.004476715 -0.0077044154 0.0045792633
0.0021808473 -0.00023003739 -0.00036169373 0.0010181844 -0.00022244875 -0.0035422284 -0.0017925438 -0.0017185338
-0.000996402 0.0005142114 -0.0005423385 -0.003067447 0.00051434693 0.005157815 8.6406784e-05 -0.0014705042
0.012324788 -0.00062419457 -0.0071250387 -0.00575353 -0.0006172094 -0.0043894546 0.0017204111 -0.000963223
0.0020227314 -0.00031494247 0.00071324327 0.0033895122 -0.00031708152 -0.0016236943 -0.0017534925 -0.0005232094
0.0064790477 0.00023800632 0.00046334552 -0.0033753943 0.00023713095 -0.005049686 -0.0025489363 0.0028965573
0.0019402218 0.00047773603 -0.0014785713 7.781048e-06 0.0004871958 -0.00097556785 -0.0012529965 -0.0018711123
0.0015929173 2.4559495e-05 -0.0013697941 -0.0018579318 2.6111795e-05 0.0013272228 0.00021091782 0.00017009486
0.011936052 0.00018524837 -0.007337882 -0.0010586681 0.00019810346 -0.0056585306 -0.008352845 -0.00043519915
0.0009642552 -0.0011862663 0.0021434086 0.0018990167 -0.0011874704 -0.0010160253 -0.0018647289 -0.005422186
0.004384055 0.0003735973 -0.0004281802 -0.003875808 0.00037483696 0.0011012786 0.00036034168 -0.0002912933
00000000: 0c6c 8b3b ec23 9838 035b 20bb a59e 35bb
00000010: 6697 8a38 b0fc 0b3b 3022 a23b 4656 6f39
00000020: 9150 baba 1378 093a 6562 a3b9 fca5 e8ba
00000030: e061 093a 7a76 e73a d98a b739 15b5 9b38
00000040: 7077 643b 8081 89b9 af7b 433a 1d07 b8ba
00000050: fa8e 85b9 d5ff d8ba a67f ffb9 544e 0739
00000060: 22ff 3339 0660 aeb9 5d3e db39 aa3e 013b
00000070: d9d2 adb9 d61d 68ba 2c52 4fba d76b 46b9
00000080: c48b 913b fb40 3eba 89d0 6dbb 86d4 e6ba
00000090: c4ed 3bba 9d78 79bb b98f a8ba d8c8 d7ba
000000a0: 1dc3 23bb 29f4 c835 72dc dfb9 6213 23bb
000000b0: 3880 0235 3e0e 503b a133 403a 0ffa b6ba
000000c0: eec5 013b 9dc5 0739 83a1 13bc 7d2f 5abb
000000d0: 36b2 0939 cee1 003b f07a 6eba 7044 00bc
000000e0: 1905 283b 41cf c639 4413 bfba 9c76 403a
000000f0: d787 c639 d002 92bb 5a57 78bb 3b5c 683b
00000100: 8c67 f53a 1dfb b837 51a8 643a fcab 5b39
00000110: 3b89 bf37 5d68 05ba e133 11ba 195d 003b
00000120: 126f 023c f6c8 01ba c754 feba 6fb7 97bb
00000130: 9eb0 fcb9 4934 99bb 39ea 4dbb 42c4 8b3a
00000140: ba43 be3a d795 273a fb18 8aba 0583 31bb
00000150: b59f 273a 2f85 7a3b bae7 0cba 4a9f eaba
00000160: d50b 2d3b 13dc 9fba 0018 823a de56 f93a
00000170: 4305 a0ba 0066 b0bb 897f fdba 59c4 92bb
00000180: dc85 87ba 1693 fab7 f10c c53a d3a5 49ba
00000190: c65a feb7 7fac d73a 24df c03a b6b8 a7b9
000001a0: 751e cc39 9648 b538 388d 5f3a c594 e3b9
000001b0: ac3e b538 9bb0 7339 0626 4dba 8e08 d03a
000001c0: 0476 c6ba afa7 923a 0a4a 5f39 cfd8 83bb
000001d0: c6b6 923a 2a5b e93b 5aa3 2ab9 9249 aa3a
000001e0: be4b d4bb bae2 a839 388c 81b9 bcc8 4f3a
000001f0: e5d9 a639 8e29 9b3b 609b 32bb 127d c139
00000200: a5e4 923b 7ce7 65ba a197 24bc bf0f 08bb
00000210: f238 65ba c67c 143b 77ec 5bbb f4bf babb
00000220: 1e09 36bb be8d 2c3a 330f 403a 97e2 813a
00000230: 529a 2b3a 3342 b53b 41b2 04b9 fad0 1b3b
00000240: 858c 943a aa57 1b39 e6ca 0ebb 2c45 e6ba
00000250: 7657 1a39 4843 9c3a 4db1 f039 d4f4 19bb
00000260: e1c4 f03b 04b8 e1b7 6134 c3bb ac99 24bb
00000270: be72 ddb7 ee86 36ba 7ad8 71b9 c7aa 6cbb
00000280: 53a0 c83a 688c f1b8 0807 4ebb dcb8 2138
00000290: 314f eab8 eb45 38bb 754a 82bb a344 49bb
000002a0: 22a8 b43a fd85 073a df67 793a b3a6 13ba
000002b0: cc68 073a 68b1 92bb 5275 fcbb a50d 963b
000002c0: 8cec 0e3b 3136 71b9 b6a1 bdb9 9974 853a
000002d0: 2241 69b9 bb24 68bb caf3 eaba 6d40 e1ba
000002e0: b499 82ba 25cc 063a b82b 0eba 3907 49bb
000002f0: 3dd5 063a e302 a93b 4a35 b538 efbd c0ba
00000300: e8ed 493c fda0 23ba 2879 e9bb 1c88 bcbb
00000310: 39cc 21ba 6ad5 8fbb 6b7f e13a cd80 7cba
00000320: cd8f 043b dd1e a5b9 f2f8 3a3a 9422 5e3b
00000330: f63d a6b9 24d2 d4ba 72d5 e5ba fd27 09ba
00000340: 314e d43b 5691 7939 2fed f239 b835 5dbb
00000350: 5ba6 7839 d677 a5bb 0e0c 27bb 2bd4 3d3b
00000360: 0a4f fe3a a578 fa39 9fcc c1ba 598b 0237
00000370: 506e ff39 40bd 7fba 963b a4ba 1c40 f5ba
00000380: 6fc9 d03a 1d05 ce37 aa8a b3ba d985 f3ba
00000390: a70a db37 35f6 ad3a d229 5d39 7e5b 3239
000003a0: 6e8f 433c 3b3f 4239 9e72 f0bb 02c3 8aba
000003b0: feb9 4f39 326b b9bb 5fda 08bc 712b e4b9
000003c0: 12c6 7c3a 7e7c 9bba 6e78 0c3b 6de8 f83a
000003d0: e5a4 9bba 272c 85ba eb69 f4ba 98ac b1bb
000003e0: 1ea8 8f3b 61df c339 607d e0b9 4501 7ebb
000003f0: c485 c439 c758 903a 3eec bc39 bab8 98b9

exp_avg_sq f4 [128, 8]
0.000559703 2.231738e-05 0.00057477824 0.00064731337 2.1911472e-05 0.00053381873 0.0005137921 0.0004229085
0.00040815613 1.6538515e-05 0.00036615168 0.00037289568 1.6608805e-05 0.00026723853 0.00047653055 0.000248904
0.00022773189 7.883822e-06 0.00016180625 0.00028540296 7.725486e-06 0.00011115821 0.0001954679 0.00014513567
0.00018312229 6.645058e-06 0.00014768375 0.00024671975 6.4617752e-06 9.614358e-05 0.00018588327 0.00011032284
0.00022745391 7.4191494e-06 0.00018130148 0.00035352833 7.248543e-06 0.00015593563 0.00016078196 0.00016356686
0.00018285764 8.023837e-06 0.00024108299 0.00013904809 8.049988e-06 9.905039e-05 0.0001374898 0.00010832634
0.0007186607 2.91011e-05 0.0007419451 0.0003696239 2.9021021e-05 0.0004884725 0.00066040806 0.0005408375
0.0005380834 2.2269325e-05 0.00059609365 0.00031162333 2.2247512e-05 0.00027529724 0.00034961605 0.0003532804
0.00027537026 9.1862075e-06 0.00020021707 0.00018560191 9.15971e-06 0.00015030152 0.00028525645 0.00017488361
0.0023225474 9.411555e-05 0.0024247365 0.0027452805 9.255018e-05 0.0021532073 0.00206176 0.0017968263
0.0006413135 2.5353569e-05 0.000761022 0.00028287232 2.5123909e-05 0.0006520823 0.00039261978 0.00049645087
0.0007921006 3.1197356e-05 0.0006237619 0.0006166321 3.1255247e-05 0.00047883406 0.0005701746 0.0005944254
0.00019016767 7.265502e-06 0.0001980008 0.00011071165 7.1984073e-06 0.00017144936 0.00013889105 0.000121997655
0.0005132435 1.8722489e-05 0.00043726 0.00062414556 1.8607212e-05 0.00031532173 0.0005420943 0.00038734343
0.00031048295 9.881755e-06 0.00023356517 0.00013223483 9.88543e-06 0.00014516796 0.00012284622 0.00016302169
0.00062001735 2.3308621e-05 0.0004924694 0.0007318956 2.323796e-05 0.00039182967 0.00083648023 0.00031143674
0.0022106976 9.500336e-05 0.002170821 0.0012261729 9.5066534e-05 0.0011607825 0.0018756349 0.0016077835
0.0009551651 3.4952056e-05 0.00071344635 0.00089430343 3.501295e-05 0.0005627246 0.0011012051 0.0004177989
0.0004553785 1.5344394e-05 0.0004142976 0.0005423038 1.5287687e-05 0.00030833823 0.00039567513 0.00041535913
0.0007835927 3.3282577e-05 0.00083784387 0.00037113208 3.2913053e-05 0.00074478 0.00054339453 0.00050042523
0.0004915575 1.668193e-05 0.00048630362 0.0003406127 1.641869e-05 0.00042109838 0.00028499737 0.00041066462
0.0008101528 3.671744e-05 0.0009205933 0.00057301705 3.662032e-05 0.0007223712 0.00050515827 0.0006357724
0.00048334114 1.827484e-05 0.00044309566 0.0007871279 1.803927e-05 0.00028865627 0.00035713176 0.00058714213
0.000113944196 3.7091231e-06 9.417586e-05 5.2738884e-05 3.7030557e-06 4.972645e-05 4.2402247e-05 5.427438e-05
0.0018714886 6.8778754e-05 0.0016036603 0.0018810019 6.804731e-05 0.0011424756 0.0018836713 0.0012244929
0.0008030675 2.9230188e-05 0.00054351793 0.00070590444 2.9271836e-05 0.00043462563 0.000905936 0.00044313964
0.00072372786 3.1416585e-05 0.0009132829 0.0005546395 3.136113e-05 0.00044024948 0.00057001936 0.0005070509
0.0006239078 2.2644082e-05 0.00058232533 0.0008757478 2.2340459e-05 0.0004015053 0.00045335965 0.0006673631
9.216012e-05 3.6163785e-06 7.589462e-05 7.723761e-05 3.6006663e-06 5.7784062e-05 0.00011600972 4.736708e-05
0.0047502965 0.00020742833 0.0053679463 0.005636621 0.00020360571 0.005369345 0.004172166 0.004603876
0.0019810451 7.809923e-05 0.0014830761 0.0018437494 7.797972e-05 0.0011219382 0.0016424494 0.0016165908
0.0006781995 2.629094e-05 0.00072572666 0.0003744424 2.6171e-05 0.00065796485 0.00041954726 0.00046957648
00000000: 08b9 123a 3536 bb37 b7ac 163a 77b0 293a
00000010: 87ce b737 f8ef 0b3a 01b0 063a d1b9 dd39
00000020: cafd d539 31bc 8a37 0cf8 bf39 3681 c339
00000030: 2353 8b37 261c 8c39 d9d6 f939 547f 8239
00000040: 50cb 6e39 c244 0437 89aa 2939 23a2 9539
00000050: b69c 0137 9c1d e938 84f6 4c39 8f2f 1839
00000060: 8404 4039 9df8 de36 8edb 1a39 2a5a 8139
00000070: 3ad2 d836 b1a0 c938 a9e9 4239 205d e738
00000080: b280 6e39 02f2 f836 bf1b 3e39 c559 b939
00000090: 8338 f336 a782 2339 9497 2839 2583 2b39
000000a0: 79bd 3f39 1e9e 0637 39cb 7c39 70cd 1139
000000b0: 6f0e 0737 46b9 cf38 232b 1039 432d e338
000000c0: 8164 3c3a 231e f437 187f 423a 14ca c139
000000d0: 2b72 f337 d60c 003a 3c1f 2d3a fdc6 0d3a
000000e0: 2a0e 0d3a 03cf ba37 2b43 1c3a 6061 a339
000000f0: 2ba0 ba37 c555 9039 ac4c b739 7e38 b939
00000100: 925f 9039 761e 1a37 5cf1 5139 229e 4239
00000110: a8ac 1937 429a 1d39 798e 9539 f660 3739
00000120: e135 183b e75f c538 54e8 1e3b 2aea 333b
00000130: 8017 c238 d31c 0d3b 981e 073b 7c83 eb3a
00000140: d21d 283a 60ae d437 527f 473a 7b4e 9439
00000150: 2fc1 d237 81f0 2a3a 89d8 cd39 4124 023a
00000160: f9a4 4f3a e8d9 0238 f483 233a 7ba5 213a
00000170: 1118 0338 050c fb39 c577 153a 37d3 1b3a
00000180: bf67 4739 30ca f336 6f9e 4f39 dd2d e838
00000190: d989 f136 16c7 3339 48a3 1139 fed8 ff38
000001a0: 308b 063a 3d0e 9d37 0b40 e539 b39d 233a
000001b0: af16 9c37 c451 a539 551b 0e3a 5b14 cb39
000001c0: 51c8 a239 d1c9 2537 2ce9 7439 84a8 0a39
000001d0: 99d9 2537 3a38 1839 48d0 0039 cdf0 2a39
000001e0: a988 223a e286 c337 1019 013a afdc 3f3a
000001f0: 24ef c237 7d6e cd39 3d47 5b3a 5548 a339
00000200: 5ae1 103b 8a3c c738 5544 0e3b 89b7 a03a
00000210: 755e c738 6625 983a ddd7 f53a 43bc d23a
00000220: 0b64 7a3a 7c99 1238 9306 3b3a b06f 6a3a
00000230: deda 1238 cf83 133a 5056 903a 050c db39
00000240: debf ee39 d6b7 8037 1536 d939 6429 0e3a
00000250: 0f3e 8037 75a8 a139 9e72 cf39 8fc4 d939
00000260: 046a 4d3a e598 0b38 c0a2 5b3a 8194 c239
00000270: 1f0c 0a38 573d 433a 9772 0e3a f82e 033a
00000280: dedb 003a 2cf0 8b37 91f6 fe39 4394 b239
00000290: deba 8937 dec6 dc39 b36b 9539 794e d739
000002a0: 6f60 543a 0d01 1a38 f853 713a 8636 163a
000002b0: c598 1938 835d 3d3a 996c 043a f7a9 263a
000002c0: f368 fd39 ec4c 9937 4b4f e839 4257 4e3a
000002d0: 0a53 9737 ca56 9739 6a3d bb39 71ea 193a
000002e0: 53f5 ee38 40ea 7836 4880 c538 f233 5d38
000002f0: 0382 7836 5e91 5038 11d9 3138 aca4 6338
00000300: bd4c f53a 503d 9038 e931 d23a f38b f63a
00000310: 9fb4 8e38 1fbf 953a 85e5 f63a 2a7f a03a
00000320: f384 523a 5a33 f537 df7a 0e3a 720c 393a
00000330: ca8c f537 77de e339 567c 6d3a 3255 e839
00000340: 8eb8 3d3a 4dc5 0338 6169 6f3a 3a65 113a
00000350: c289 0338 49d1 e639 5a6d 153a 9ceb 043a
00000360: be8d 233a ccf3 bd37 31a7 183a 7192 653a
00000370: c567 bb37 2181 d239 e7b0 ed39 fbf1 2e3a
00000380: 1646 c138 e9b0 7236 9d29 9f38 a0fa a138
00000390: faa2 7136 2a5d 7238 3f4a f338 04ac 4638
000003a0: 60a8 9b3b 1e81 5939 99e5 af3b 67b3 b83b
000003b0: fe7e 5539 55f1 af3b aab6 883b 1cdc 963b
000003c0: 6cd4 013b 34c9 a338 c763 c23a f7a9 f13a
000003d0: 0b89 a338 000e 933a 7547 d73a c9e3 d33a
000003e0: 33c9 313a 5d8b dc37 b13e 3e3a cf50 c439
000003f0: cb89 db37 467b 2c3a aef6 db39 7d31 f639

exp_avg f4 [128]
0.00014509232 0.0010488055 -0.0005245432 -0.0006651882 -0.0014515215 2.9944442e-06 0.0002589644 0.0007583984
4.4102886e-05 -0.000990181 0.0012785745 -0.002439265 -5.974163e-05 0.00017288545 0.002237778 0.00064424763
-0.0017540301 0.0013164801 0.0002962922 -5.381556e-05 -0.00023035856 0.0010339614 -0.00046007478 0.0010284228
-0.0012483891 -0.00062988495 0.00047601265 0.00095547206 4.911899e-05 0.00037049674 -0.0023725326 0.0007471946
0.0011023174 -0.00024665386 0.0005274446 0.00038607037 -0.0007297694 -0.0022545564 0.00018689827 -0.00058689376
0.0012180844 0.0024193837 0.0003514695 -0.0007143116 0.0008562287 2.6641035e-05 -0.0015895668 -0.0005681887
-0.000499293 0.0012902784 -0.0003271146 0.0005743162 -0.00023748408 -0.0014172778 -0.0028401215 0.0012909552
-0.002113878 -0.0013209045 -9.191329e-05 0.0001462192 0.00073263043 0.00026329854 -9.19502e-05 0.00086574117
0.00053172477 0.00037734836 0.0022971414 0.0007308777 -0.00020410302 0.0006459941 -0.0019168039 -0.0018097854
0.00062743115 -0.0005366901 0.00019706925 0.0011379764 -0.00086638675 0.00025601886 0.0007266402 0.001190023
-0.0019315847 0.0003757935 0.0003626304 0.00064834557 0.0002645265 6.857554e-05 -0.00041593032 5.1146697e-05
0.0007277534 -0.0021764894 -4.2085914e-05 0.00023910531 -0.00029177073 0.0006389159 -0.0012143354 0.0016899385
-0.00018325176 0.00023851008 0.00094549346 -0.0026597078 -0.00016918617 -0.00055177143 -0.0013788376 -0.0026494819
0.0014537639 0.0008362411 -0.00021109989 -0.0005816388 -0.00017248584 0.001644916 -0.00096736575 -0.0017591743
-0.00043372676 0.0005473861 0.0022159056 0.00065538514 0.0012253061 -0.00027264602 0.0014420287 -0.0011212575
-0.00012209055 -0.00069609575 0.00037525618 0.0024857079 0.0010210865 -0.0024804133 0.00032800008 0.00056538696
00000000: ec23 1839 1378 893a 8081 09ba 0660 2eba
00000010: fb40 beba 29f4 4836 9dc5 8739 41cf 463a
00000020: 1dfb 3838 f6c8 81ba d795 a73a 13dc 1fbb
00000030: 1693 7ab8 9648 3539 afa7 123b bae2 283a
00000040: 7ce7 e5ba be8d ac3a aa57 9b39 04b8 61b8
00000050: 688c 71b9 fd85 873a 3136 f1b9 25cc 863a
00000060: fda0 a3ba dd1e 25ba 5691 f939 a578 7a3a
00000070: 1d05 4e38 3b3f c239 7e7c 1bbb 61df 433a
00000080: a27b 903a 5251 81b9 3544 0a3a 7d69 ca39
00000090: ff4d 3fba 2ec1 13bb 1ffa 4339 c6d9 19ba
000000a0: 21a8 9f3a 868e 1e3b 7045 b839 a440 3bba
000000b0: 8974 603a 307b df37 0359 d0ba 80f2 14ba
000000c0: fce2 02ba 8f1e a93a 9480 abb9 b58d 163a
000000d0: 2605 79b9 f4c3 b9ba 5521 3abb 4535 a93a
000000e0: fd88 0abb 3322 adba 92c1 c0b8 6b52 1939
000000f0: ff0d 403a 550b 8a39 63d5 c0b8 e8f2 623a
00000100: 7263 0b3a d7d6 c539 a38b 163b 5f98 3f3a
00000110: 7d04 56b9 ee57 293a 443d fbba 5236 edba
00000120: 317a 243a aab0 0cba 60a4 4e39 2728 953a
00000130: 3b1e 63ba 453a 8639 007c 3e3a 8cfa 9b3a
00000140: 3a2d fdba 2606 c539 6e1f be39 bcf5 293a
00000150: 25b0 8a39 36d0 8f38 3911 dab9 5986 5638
00000160: b4c6 3e3a 6fa3 0ebb 6885 30b8 58b8 7a39
00000170: cef8 98b9 ec7c 273a 562a 9fba ed80 dd3a
00000180: 4527 40b9 9018 7a39 feda 773a 7e4e 2ebb
00000190: 9167 31b9 c1a4 10ba 1dba b4ba eea2 2dbb
000001a0: 398c be3a 3137 5b3a b25a 5db9 1e79 18ba
000001b0: 51dd 34b9 399a d73a d196 7dba 1894 e6ba
000001c0: d265 e3b9 767e 0f3a ba38 113b 27ce 2b3a
000001d0: 739a a03a eef1 8eb9 7402 bd3a 29f7 92ba
000001e0: 6f05 00b9 327a 36ba 08be c439 42e7 223b
000001f0: fad5 853a 6e8e 22bb 6df7 ab39 7a36 143a

exp_avg_sq f4 [128]
8.926952e-05 6.615406e-05 3.1535288e-05 2.6580232e-05 2.9676597e-05 3.2095348e-05 0.0001164044 8.90773e-05
3.674483e-05 0.0003764622 0.000101414276 0.00012478943 2.9062008e-05 7.4889955e-05 3.952702e-05 9.3234485e-05
0.00038001343 0.00013980822 6.137758e-05 0.0001331303 6.672772e-05 0.00014686976 7.309936e-05 1.48364925e-05
0.00027511502 0.00011692075 0.00012566634 9.057633e-05 1.4465514e-05 0.0008297133 0.0003123969 0.00010516376
3.7524766e-05 7.64129e-05 2.933027e-05 4.356668e-05 8.477396e-05 0.000219342 0.00019484595 0.00013206778
0.00035710013 0.00013996838 0.0001015789 2.7252365e-05 0.00016067659 5.7540296e-05 8.957565e-05 0.00024937125
0.00044992485 0.00021112106 3.530906e-05 3.4131965e-05 0.0001316176 6.256207e-05 0.0004245388 2.9799834e-05
0.00034466805 8.833759e-05 0.0002498526 0.00021046444 5.73462e-05 6.9086855e-05 1.2418854e-05 4.128578e-05
2.3968794e-05 0.000116896175 0.00012729269 1.9884325e-05 9.895475e-05 0.00011603951 0.00041890636 0.00030283307
7.0112015e-05 8.319115e-05 0.000112958456 0.00043692018 0.00017920656 0.00011985121 0.00014723418 6.950936e-05
0.00025883704 8.070476e-05 0.00010271376 4.0611703e-05 9.166337e-05 1.7759647e-05 0.00013506315 0.00010182345
9.611496e-05 0.00062619924 3.23866e-05 0.00013046342 8.011537e-05 3.862964e-05 0.00019083527 0.00050688145
0.00020006875 2.1318889e-05 6.560074e-05 0.00017006866 7.86069e-05 7.6618606e-05 0.00033554112 4.6085323e-05
0.00010314798 4.887802e-05 0.00011592936 9.472432e-05 0.00028928797 0.00038704328 8.1507686e-05 0.0001317213
2.3170134e-05 1.3109784e-05 8.485379e-05 2.3742834e-05 0.00014910981 0.00011866965 5.5300054e-05 2.6519736e-05
4.519123e-05 5.5412176e-05 0.00011285652 0.0002272218 0.00015670092 0.0004188202 0.00016681352 0.00017311431
00000000: 3536 bb38 31bc 8a38 c244 0438 9df8 de37
00000010: 02f2 f837 1e9e 0638 231e f438 03cf ba38
00000020: 761e 1a38 e75f c539 60ae d438 e8d9 0239
00000030: 30ca f337 3d0e 9d38 d1c9 2538 e286 c338
00000040: 8a3c c739 7c99 1239 d6b7 8038 e598 0b39
00000050: 2cf0 8b38 0d01 1a39 ec4c 9938 40ea 7837
00000060: 503d 9039 5a33 f538 4dc5 0339 ccf3 bd38
00000070: e9b0 7237 1e81 593a 34c9 a339 5d8b dc38
00000080: e963 1d38 dd3f a038 460a f637 5ebb 3638
00000090: acc8 b138 2bff 6539 904f 4c39 ad7b 0a39
000000a0: 2b39 bb39 7ac4 1239 c206 d538 029c e437
000000b0: 4b7b 2839 6c57 7138 90da bb38 0bbe 8239
000000c0: e4e3 eb39 6160 5d39 d118 1438 eb28 0f38
000000d0: d502 0a39 c133 8338 a294 de39 a8fa f937
000000e0: 90b4 b439 e241 b938 a6fe 8239 1eb0 5c39
000000f0: 0387 7038 b9e2 9038 925a 5037 452a 2d38
00000100: 9810 c937 2826 f538 df79 0539 43cd a637
00000110: ed85 cf38 3d5a f338 a9a0 db39 91c5 9e39
00000120: 1a09 9338 e976 ae38 1ce4 ec38 6f12 e539
00000130: 65e9 3b39 a158 fb38 e062 1a39 8ec5 9138
00000140: 85b4 8739 0a40 a938 0868 d738 7c56 2a38
00000150: 663b c038 8dfa 9437 bd9f 0d39 0c8a d538
00000160: 5491 c938 8527 243a d9d6 0738 02cd 0839
00000170: 9d03 a838 4306 2238 f41a 4839 3de0 043a
00000180: 8cc9 5139 f7d5 b237 2193 8938 7554 3239
00000190: c2d9 a438 4dae a038 91eb af39 bd4b 4138
000001a0: 2651 d838 6002 4d38 1a1f f338 bba6 c638
000001b0: 93ab 9739 12ec ca39 1bef aa38 ab1e 0a39
000001c0: 7c5d c237 18f2 5b37 88f3 b138 592b c737
000001d0: 5c5a 1c39 49de f838 fbf1 6738 b376 de37
000001e0: b78b 3d38 5f6a 6838 62ad ec38 6342 6e39
000001f0: 1550 2439 1895 db39 aaea 2e39 0586 3539
