results/test01/RollerBall/RollerBall-30759.onnx (onnx, 76122 bytes, 7 tensors)

network_body._body_endoder.seq_layers.0.weight f4 [128, 8]
0.22014199 0.32030523 -0.18289296 0.1893138 0.66069657 -0.02570332 -0.109932765 0.1196489
0.17225325 0.713574 0.29493445 -0.26544473 -0.44982526 -0.16863889 0.54019046 0.12398689
0.08478145 -0.42552066 0.14845991 0.32658687 0.14555474 0.056426678 0.24098878 0.27072406
0.18485668 0.008767794 0.17082098 0.2843701 -0.39668474 0.45344198 0.15160865 0.21565081
-0.066144876 -0.1342849 0.31997436 0.7370607 0.08294687 0.36898768 -0.6443789 -0.2789981
0.10058754 0.28617528 0.23850442 -0.058200922 -0.025695505 0.17825094 -0.22594516 0.21767914
0.60615915 0.15753767 0.13682358 -0.83185345 -0.16638066 -0.33425164 -0.030039718 0.07087878
-0.32735768 -0.45351467 0.6908666 -0.23494227 0.17303494 -0.14322212 -0.069851615 0.12497345
0.06231761 0.3808086 -0.22194736 -0.033592023 -0.36485624 -0.18338934 0.39524108 0.1869755
-0.18157002 0.11990976 0.22165234 0.13890864 0.5289792 -0.20687608 0.35309505 -0.20559984
-0.04716554 -0.37223268 -0.6187429 -0.7630494 0.0755125 0.0543985 -0.068677224 -0.07162588
-0.5318575 0.059266414 -0.15503897 -0.19427744 -0.2559696 0.5043863 0.2540318 0.08416275
-0.23572539 0.1738043 -0.13147354 0.25098723 -0.29041222 -0.11123225 -0.47970358 0.16728231
0.2945755 -0.17726082 -0.13996679 0.77230096 0.90499544 0.3880933 0.22482122 -0.23325872
-0.15912442 0.19774348 -0.11260844 -0.58229655 -0.08709955 0.3700205 -0.23992522 -0.4753004
0.28208727 -0.06734454 0.23743631 -0.42502683 0.48119038 0.5632494 0.607107 0.06813176
0.55176 -0.09716304 -0.3798195 -0.6235511 0.36105958 0.31109262 -0.2796196 0.7152058
0.19431539 -0.30571446 -0.2734845 -0.1742466 0.25169352 0.6704034 0.21542178 0.5601573
0.5016332 0.13815105 0.21509285 0.19200402 -0.05571084 -0.11259205 0.21673697 -0.54616874
0.31381896 -0.19244465 -0.61074734 -0.709531 -0.1011731 -0.23267815 -0.061747074 0.8444274
-0.5962485 -0.6274026 -0.3558561 0.45748016 -0.69735533 -0.10916125 0.07889074 0.03093585
-0.48616216 0.04797555 0.7103785 -0.17015274 0.3358715 -0.42113867 -0.07397742 -0.13666232
-0.08751035 -0.12179563 -0.25149846 0.47691658 -0.4964612 0.2583408 0.014813931 0.11532147
-0.3234998 -0.5120154 0.09405145 -0.5316824 -0.25050068 0.20739827 -0.13251498 0.12001843
-0.18241069 0.5935836 0.45393658 -0.11457567 -0.31251925 -0.07348245 0.40121874 -0.40056935
-0.021139834 0.28923914 -0.17313166 0.15507832 -0.462553 0.22489825 0.48053837 0.49683312
-0.34158283 -0.2226232 0.37690592 0.1393029 0.3121449 -0.264322 0.1737775 0.5083883
-0.3713828 0.34518224 -0.5183969 1.0576876 0.04361627 -0.6063169 -0.18210968 0.519199
0.46594837 0.08010159 0.23245107 0.18007186 0.37593418 0.22620356 0.21487747 0.5677663
-0.2538768 0.9256126 0.3924792 -0.003553692 -0.4239707 -0.37420994 0.23407094 -0.6963047
-0.690184 0.8672519 -0.53430676 -0.23636703 -0.7188884 1.0888418 0.46671954 0.1946137
0.022204759 0.35533702 -0.1568034 -0.53358173 -0.51650727 -0.6147974 0.023131855 -0.060072273
00000000: e76c 613e 0cff a33e 4b48 3bbe 7adb 413e
00000010: 6923 293f c58f d2bc 6e24 e1bd 7c0a f53d
00000020: 2863 303e c9ac 363f a601 973e 5fe8 87be
00000030: 7f4f e6be acaf 2cbe ec49 0a3f d7ec fd3d
00000040: e6a1 ad3d d8dd d9be e005 183e 6536 a73e
00000050: 4d0c 153e a91f 673d c3c5 763e 589c 8a3e
00000060: 124b 3d3e cba6 0f3c b2eb 2e3e f598 913e
00000070: 431a cbbe 8c29 e83e 4c3f 1b3e 91d3 5c3e
00000080: f776 87bd fb81 09be aed3 a33e 03b0 3c3f
00000090: 0ce0 a93d f4eb bc3e 04f6 24bf d7d8 8ebe
000000a0: d700 ce3d 9185 923e 813a 743e 1764 6ebd
000000b0: 617f d2bc 6a87 363e 2b5e 67be 48e7 5e3e
000000c0: 3f2d 1b3f 8e51 213e 7b1b 0c3e 59f4 54bf
000000d0: b15f 2abe 0823 abbe db15 f6bc e528 913d
000000e0: 6d9b a7be 1333 e8be a2dc 303f b594 70be
000000f0: 1230 313e d2a8 12be 5d0e 8fbd 15f2 ff3d
00000100: c040 7f3d 58f9 c23e 2b46 63be ca97 09bd
00000110: 70ce babe 6aca 3bbe 0a5d ca3e 8176 3f3e
00000120: 7eed 39be 4093 f53d d5f8 623e 113e 0e3e
00000130: 2e6b 073f 53d7 53be e0c8 b43e c488 52be
00000140: a730 41bd 4895 bebe ef65 1ebf 3557 43bf
00000150: 4ca6 9a3d f6d0 5e3d a5a6 8cbd 97b0 92bd
00000160: d027 08bf 57c1 723d 89c2 1ebe aaf0 46be
00000170: 730e 83be 761f 013f 7510 823e 855d ac3d
00000180: ff61 71be c1f9 313e 00a1 06be 6681 803e
00000190: e9b0 94be bccd e3bd b59b f5be 0e4c 2b3e
000001a0: 9ad2 963e dc83 35be 7453 0fbe 84b5 453f
000001b0: c8ad 673f 2ab4 c63e 8937 663e 60db 6ebe
000001c0: 83f1 22be 447d 4a3e 419f e6bd 6311 15bf
000001d0: 4061 b2bd 5473 bd3e f5ae 75be 935a f3be
000001e0: be6d 903e efeb 89bd 8122 733e 1e9d d9be
000001f0: 965e f63e 1d31 103f 5d6b 1b3f aa88 8b3d
00000200: 2540 0d3f 6afd c6bd b477 c2be 0ba1 1fbf
00000210: cddc b83e 8847 9f3e 4d2a 8fbe ba17 373f
00000220: 9dfa 463e 9b86 9cbe 2906 8cbe b36d 32be
00000230: f9dd 803e 8f9f 2b3f 8797 5c3e 7866 0f3f
00000240: 096b 003f 7877 0d3e 4d41 5c3e b49c 443e
00000250: 0d31 64bd a996 e6bd 4cf0 5d3e b7d1 0bbf
00000260: e1ac a03e 3610 45be f059 1cbf d3a3 35bf
00000270: d833 cfbd 2e43 6ebe 80ea 7cbd 652c 583f
00000280: bea3 18bf 759d 20bf c532 b6be d73a ea3e
00000290: e185 32bf ef8f dfbd 7891 a13d 2e6d fd3c
000002a0: 3fea f8be 0382 443d 5edb 353f 853c 2ebe
000002b0: 59f7 ab3e 7d9f d7be 7981 97bd 35f1 0bbe
000002c0: a038 b3bd fd6f f9bd 68c4 80be 692e f43e
000002d0: 2a30 febe 3f45 843e 21b6 723c aa2d ec3d
000002e0: c4a1 a5be 7113 03bf 0c9e c03d 561c 08bf
000002f0: a041 80be 3660 543e 02b2 07be 39cc f53d
00000300: dec9 3abe 18f5 173f 606a e83e a6a6 eabd
00000310: 8602 a0be f77d 96bd 8b6c cd3e 6d17 cdbe
00000320: 722d adbc 2717 943e 6d49 31be dacc 1e3e
00000330: bfd3 ecbe ba4b 663e 2009 f63e e960 fe3e
00000340: f2e3 aebe 56f7 63be d0f9 c03e 6ba5 0e3e
00000350: 75d1 9f3e 3755 87be bbf2 313e bc25 023f
00000360: e325 bebe babb b03e a9b5 04bf 4f62 873f
00000370: f9a6 323d 9637 1bbf f67a 3abe 3aea 043f
00000380: c990 ee3e 4d0c a43d a707 6e3e c264 383e
00000390: 727a c03e e8a1 673e d708 5c3e 2259 113f
000003a0: 24fc 81be f3f4 6c3f 09f3 c83e 0fe5 68bb
000003b0: b012 d9be 7298 bfbe 4bb0 6f3e 0641 32bf
000003c0: e6af 30bf 3804 5e3f 54c8 08bf 330a 72be
000003d0: 1209 38bf 2b5f 8b3f ddf5 ee3e d048 473e
000003e0: c1e6 b53c bcee b53e 1291 20be d098 08bf
000003f0: d239 04bf 5d63 1dbf 047f bd3c 580e 76bd

network_body._body_endoder.seq_layers.0.bias f4 [128]
0.0028355953 -0.016411727 -0.019955695 -0.039795756 -0.02075332 -0.024163775 0.076624654 -0.0034484672
-0.027820759 0.04733908 0.0035890208 0.056091547 -0.018148383 -0.022348082 -0.055311438 -0.020429434
0.0921235 -0.014084193 -0.050075904 0.075522654 0.008594964 0.046195254 -0.038013164 -0.010063549
0.04056016 0.009221186 0.0056357286 -0.00809709 -0.059855565 0.071286745 0.079131864 0.052218746
-0.0113624325 0.04170968 -0.02417358 -0.07209495 -0.0024136005 0.010092216 0.051720683 -0.059973706
0.07528271 -0.021681502 0.035832353 -0.0057442468 0.035940703 -0.039592836 0.043174196 0.008410161
0.053735603 0.015375852 -0.017911492 -0.0026455028 0.06144726 0.022459425 0.04615098 0.011009627
0.09101089 -0.008006787 0.038292523 -0.002470035 -0.009643637 -0.03536759 -0.092799604 0.01621397
0.026886752 0.014749088 0.015959911 -0.02317683 0.0399082 0.033814244 0.03510269 0.05701945
0.04109891 0.008534059 -0.013699434 0.056697313 0.039428156 -0.0028811903 0.029322026 0.021202957
0.021246364 -0.020788765 0.047296032 0.0064152945 0.017415276 -0.061726946 0.028771596 0.02118588
0.03557484 0.084247634 0.04769748 0.029380174 -0.0034223946 -0.012968051 0.00833953 0.078218184
0.055405274 -0.0434767 -0.02118249 -0.016757088 0.027762804 -0.017647536 0.06373556 0.073839426
0.0131851 0.0069547314 0.04986338 0.041357372 0.018389074 0.013987269 0.04177965 0.034080118
-0.028705075 0.03495544 -0.019438524 0.0037553164 0.0033501673 0.009062602 0.062238317 0.010763581
-0.039692525 -0.06696823 0.03883949 -0.0013287514 0.010635036 0.07684808 0.049978163 0.027463814
00000000: 65d5 393b e371 86bc 207a a3bc e000 23bd
00000010: de02 aabc 1cf3 c5bc 63ed 9c3d aeff 61bb
00000020: 5ce8 e3bc a0e6 413d c735 6b3b 40c0 653d
00000030: ebab 94bc 5313 b7bc 3f8e 62bd a15b a7bc
00000040: 3fab bc3d 63c1 66bc 641c 4dbd 9fab 9a3d
00000050: e4d1 0c3c 3c37 3d3d b1b3 1bbd 95e1 24bc
00000060: 6922 263d 7514 173c ebab b83b a8a9 04bc
00000070: 1c2b 75bd c9fe 913d e30f a23d 53e3 553d
00000080: 7f29 3abc c5d7 2a3d ac07 c6bc 84a6 93bd
00000090: 7f2d 1ebb d259 253c 11d9 533d fda6 75bd
000000a0: d22d 9a3d 689d b1bc f2c4 123d 3c3a bcbb
000000b0: 8f36 133d 192c 22bd 6dd7 303d c6ca 093c
000000c0: dd19 5c3d ffea 7b3c 1fbb 92bc 2c60 2dbb
000000d0: 1fb0 7b3d d4fc b73c cf08 3d3d b961 343c
000000e0: eb63 ba3d e62e 03bc 9fd8 1c3d 50e0 21bb
000000f0: 5800 1ebc 9bdd 10bd b80d bebd 29d3 843c
00000100: 9b41 dc3c 29a6 713c 5cbe 823c 56dd bdbc
00000110: c876 233d ce80 0a3d d7c7 0f3d 3a8d 693d
00000120: 5557 283d 70d2 0b3c 9773 60bc 713b 683d
00000130: 6b7f 213d 5ad2 3cbb bf34 f03c d3b1 ad3c
00000140: db0c ae3c 334d aabc 7cb9 413d 6437 d23b
00000150: 7baa 8e3c 65d5 7cbd 69b2 eb3c 038e ad3c
00000160: ecb6 113d 068a ac3d 6f5e 433d b1ae f03c
00000170: 414a 60bb f377 54bc 86a2 083c db30 a03d
00000180: a4f0 623d a014 32bd e786 adbc 2946 89bc
00000190: d26e e33c 9191 90bc ca87 823d 2039 973d
000001a0: 5106 583c 84e4 e33b 8b3d 4c3d 5966 293d
000001b0: afa4 963c dc2a 653c 2321 2b3d 9897 0b3d
000001c0: e826 ebbc 6f2d 0f3d 8a3d 9fbc c11b 763b
000001d0: 7b8e 5b3b 4f7b 143c 9bed 7e3d bb59 303c
000001e0: a194 22bd a426 89bd 2816 1f3d 8029 aeba
000001f0: 933e 2e3c 8762 9d3d e7b5 4c3d cbfb e03c

network_body._body_endoder.seq_layers.2.weight f4 [128, 128]
-0.07335614 0.04096221 0.12459649 0.009749613 0.0366866 0.16397864 -0.037167422 -0.18605673
-0.12903187 0.12317089 -0.24251989 -0.052011535 0.05466358 -0.020465096 0.0945858 0.009735813
0.017186577 0.14449607 0.041351452 -0.089558184 0.015703114 0.16258277 0.028283676 -0.18356803
-0.059577446 -0.012109593 0.04496857 -0.044702582 0.005456523 0.17934413 0.028920166 -0.0890109
0.004922609 0.11502338 0.19737506 0.07381551 0.07583157 0.06587036 0.049084608 -0.099971466
-0.05308123 -0.092328206 0.09058626 0.017828194 -0.19565716 0.07894735 0.081181616 0.21043605
-0.15848574 -0.0894624 -0.054755438 0.051783595 0.0786063 -0.076420374 0.016142044 0.0002891756
0.1425371 -0.032482512 -0.11727787 -0.11246706 -0.06295472 -0.10698011 -0.077517614 -0.003758256
-0.14887884 0.03009922 -0.079955965 0.065090425 0.033335887 -0.21743909 -0.002654825 0.026935183
-0.28499562 0.024753766 -0.090844244 -0.20038041 0.040596448 0.0672801 -0.1711757 0.0661631
0.022333013 0.12708102 0.011973323 -0.10014343 -0.08180398 0.07589132 -0.13370751 0.08594561
-0.08785305 -0.13233598 0.005667862 0.06735488 0.17955412 -0.13419722 -0.11476446 -0.16311067
-0.011477758 -0.1014117 -0.113259114 0.2042708 -0.000104554216 -0.06376667 -0.10225107 0.055103347
-0.0866991 -0.01646134 -0.032998536 -0.15577352 -0.029307073 -0.026523765 -0.05967373 0.081138514
-0.08935255 -0.033612482 -0.022759559 0.0750268 -0.09367782 -0.11991394 -0.10740238 0.012021477
0.072935246 0.15294483 0.03845976 0.14125276 -0.014970027 -0.08795619 0.10470438 -0.026251206
-0.07505306 -0.075900294 0.010632827 0.016505092 -0.048011113 0.037651766 0.012914612 -0.08031906
-0.03204131 -0.17521897 -0.028380133 0.028582174 -0.08899731 0.062350728 -0.034321368 -0.047847297
0.10222475 0.09404398 -0.014628454 -0.066493526 0.09353409 0.05893019 0.049622595 -0.03259232
-0.132398 -0.0127209 -0.20269467 -0.05196309 0.08793164 -0.1076447 0.13351008 -0.035291668
-0.093742855 0.057726875 -0.13442698 -0.0337978 -0.05941823 0.1160908 -0.08592712 0.05548354
0.10771912 0.123802416 -0.090855636 0.033691697 -0.07097674 0.010644173 0.12999043 0.002462057
0.20604116 -0.065038465 -0.061205108 0.111459054 0.011346193 0.083818406 0.03127244 0.038093682
0.059021402 -0.0803008 -0.036517836 -0.1572984 0.07250205 0.2340171 0.0154373385 -0.07224484
-0.0706917 -0.054753043 -0.082713805 -0.11727175 -0.073769726 0.099133596 0.22937085 -0.094611764
-0.048982967 -0.011533838 0.057993688 0.13776481 0.084370874 0.059639618 0.17345484 -0.03215279
-0.110078335 0.08763163 -0.01815238 -0.07398795 -0.0042996374 -0.0040955693 0.1613127 0.030048015
-0.18300392 0.1760481 -0.08881505 -0.07966242 -0.20159863 -0.02376695 0.09279252 -0.0077968356
-0.05972224 -0.036058106 -0.048587166 -0.06423542 -0.09033 -0.010505997 -0.021507422 -0.010647693
0.23762211 -0.073475316 0.15880504 -0.033490784 0.080379955 0.029554602 -0.17996931 0.0045879646
0.06260211 -0.07976113 -0.010440752 -0.020111723 -0.03222353 0.0063070795 0.2005959 0.012290142
0.13090333 -0.10507278 -0.30209932 0.07906958 -0.15955672 0.10243278 0.02826987 -0.043882556
00000000: be3b 96bd fec7 273d 722c ff3d d7bc 1f3c
00000010: b044 163d 04ea 273e de3c 18bd a885 3ebe
00000020: ee20 04be 0541 fc3d 2257 78be 0c0a 55bd
00000030: ebe6 5f3d 6ba6 a7bc 33b6 c13d f682 1f3c
00000040: ddca 8c3c c7f6 133e 2460 293d 486a b7bd
00000050: d1a3 803c 197c 263e 2bb3 e73c 42f9 3bbe
00000060: 7b07 74bd 5067 46bc f730 383d 0e1a 37bd
00000070: a2cc b23b fda5 373e fce9 ec3c 594b b6bd
00000080: d64d a13b 6191 eb3d b01c 4a3e 962c 973d
00000090: 954d 9b3d 0ae7 863d f10c 493d d7bd ccbd
000000a0: b46b 59bd 9216 bdbd 4a85 b93d 6f0c 923c
000000b0: 5a5a 48be 26af a13d 8c42 a63d 8c7c 573e
000000c0: 164a 22be 1038 b7bd 3d47 60bd 091b 543d
000000d0: 57fc a03d 4982 9cbd 523c 843c 7e9c 9739
000000e0: 3ff5 113e 620c 05bd 612f f0bd 2155 e6bd
000000f0: 67ee 80bd 6318 dbbd 8ec1 9ebd 134d 76bb
00000100: b273 18be a492 f63c f4bf a3bd 214e 853d
00000110: 368b 083d 5aa8 5ebe 93fc 2dbb 2ca7 dc3c
00000120: f2ea 91be 69c8 ca3c 8c0c babd 8630 4dbe
00000130: 7648 263d 26ca 893d af48 2fbe 8580 873d
00000140: b9f3 b63c 8721 023e c22b 443c 0018 cdbd
00000150: d888 a7bd e96c 9b3d 9fea 08be 4104 b03d
00000160: 4dec b3bd 1583 07be 79b9 b93b 5bf1 893d
00000170: 09dd 373e ff6a 09be a109 ebbd 7c06 27be
00000180: 350d 3cbc f0b0 cfbd 65f4 e7bd 5d2c 513e
00000190: 1e44 dbb8 1a98 82bd 0269 d1bd 0cb4 613d
000001a0: 4c8f b1bd efd9 86bc 7929 07bd 1883 1fbe
000001b0: 6315 f0bc 5e48 d9bc 716c 74bd f32b a63d
000001c0: 78fe b6bd 3ead 09bd 4172 babc a7a7 993d
000001d0: 28da bfbd 7195 f5bd c7f5 dbbd bbf5 443c
000001e0: 135f 953d 929d 1c3e fb87 1d3d 90a4 103e
000001f0: d844 75bc 6022 b4bd 406f d63d c50c d7bc
00000200: 6bb5 99bd 9d71 9bbd 4f35 2e3c b035 873c
00000210: 4da7 44bd bd38 1a3d cf97 533c 527e a4bd
00000220: c03d 03bd 9a6c 33be 747d e8bc 2a25 ea3c
00000230: 3944 b6bd 7a63 7f3d 9094 0cbd 87fb 43bd
00000240: 365b d13d 219a c03d 2fac 6fbc c22d 88bd
00000250: cd8e bf3d c860 713d 1041 4b3d 867f 05bd
00000260: 5793 07be 526b 50bc 318f 4fbe 40d7 54bd
00000270: 8115 b43d d374 dcbd deb6 083e ff8d 10bd
00000280: 41fc bfbd 0473 6c3d 3aa7 09be 906f 0abd
00000290: 8860 73bd 03c1 ed3d 8ffa afbd b542 633d
000002a0: d89b dc3d 1f8c fd3d 8512 babd 4e00 0a3d
000002b0: 415c 91bd e664 2e3c 361c 053e 765a 213b
000002c0: 74fc 523e e332 85bd 35b2 7abd a544 e43d
000002d0: 62e5 393c fca8 ab3d 8817 003d 1f08 1c3d
000002e0: 6dc0 713d bf74 a4bd ba93 15bd d512 21be
000002f0: f47b 943d 2ea2 6f3e e4ec 7c3c 1af5 93bd
00000300: cfc6 90bd ba44 60bd db65 a9bd 2c2c f0bd
00000310: 9514 97bd 8e06 cb3d 31e0 6a3e d0c3 c1bd
00000320: 5da2 48bd 6cf8 3cbc ca8a 6d3d 3812 0d3e
00000330: a3ca ac3d ac48 743d 259e 313e a5b2 03bd
00000340: c070 e1bd 3678 b33d 4db4 94bc ff86 97bd
00000350: f9e3 8cbb 2034 86bb 282f 253e 4127 f63c
00000360: 6165 3bbe f445 343e aae4 b5bd 0d26 a3bd
00000370: df6f 4ebe e8b2 c2bc 010a be3d 997c ffbb
00000380: 4f9f 74bd aab1 13bd 5603 47bd dc8d 83bd
00000390: effe b8bd 5821 2cbc 5530 b0bc a973 2ebc
000003a0: 3653 733e 3a7a 96bd ca9d 223e a22d 09bd
000003b0: 3f9e a43d 7e1c f23c e049 38be a356 963b
000003c0: 8935 803d ce59 a3bd b00f 2bbc 57c1 a4bc
000003d0: d2fc 03bd 9eab ce3b 0369 4d3e 975c 493c
000003e0: 860b 063e 6630 d7bd c3ac 9abe 3bef a13d
000003f0: d662 23be 47c8 d13d 3796 e73c 32be 33bd

network_body._body_endoder.seq_layers.2.bias f4 [128]
-0.005319214 0.02079331 0.041466355 -0.027599148 0.03160242 0.03018765 0.0023583192 -0.013118026
0.008225024 0.034529034 0.0130249085 0.035043277 0.049115416 0.002755588 0.039919257 -0.039051294
0.011220233 0.06084015 0.017349726 0.027058538 0.087749824 0.014188059 0.06092979 0.015027798
0.0054654996 0.036800988 0.00084430823 0.025881808 -0.008853243 0.04828226 0.027233839 0.01877166
0.0360861 0.015759967 0.036292326 0.011021449 -0.042514462 0.003668781 -0.0142752845 0.052916873
-0.02002156 0.03442062 0.0037531601 0.04923826 0.039505117 0.014109597 0.023646343 0.04898593
0.018921584 0.059747234 -0.013401995 0.037712116 0.026361113 -0.017419506 0.02698014 0.009909324
0.06186221 -0.034309655 0.04007935 0.05284399 0.065685794 0.06355811 -0.011041139 -0.028973723
0.047234975 0.0012729819 0.022085618 0.055324767 0.037648067 0.049495433 0.046413366 0.07617323
0.020934355 0.028456395 0.008064456 0.01199359 0.013811575 0.021198492 0.051457074 0.026871732
0.041790765 0.010235647 0.06693858 0.04973827 0.025104715 0.067685135 0.014505582 0.047681417
0.024279384 0.041764688 -0.0018911907 0.013869526 -0.0028908607 0.058439285 0.017882105 0.03387883
0.011611594 0.05026273 0.023880327 0.023329005 0.046492614 0.027927743 0.055255596 -0.0026738374
0.02480365 -0.010890336 0.011935041 -0.01038937 0.044178132 0.015646353 0.019127842 0.073640816
-0.017848443 0.035409484 0.027219214 0.0472431 -0.0013166277 0.0062076785 -0.00746922 -0.005399744
-0.03605703 0.026348285 0.007617174 0.016860241 -0.002818159 -0.005976394 0.025663966 -0.061690316
00000000: cd4c aebb bb56 aa3c a0d8 293d 9c17 e2bc
00000010: 8a71 013d 174c f73c 088e 1a3b fdec 56bc
00000020: 40c2 063c 516e 0d3d 6d66 553c 8a89 0f3d
00000030: 3f2d 493d 1897 343b 6082 233d 40f4 1fbd
00000040: 11d5 373c 8533 793d 0321 8e3c dea9 dd3c
00000050: 2eb6 b33d 0875 683c 8491 793d 2737 763c
00000060: ef17 b33b a2bc 163d 9154 5d3a 1606 d43c
00000070: 310d 11bc 9ec3 453d 8019 df3c 06c7 993c
00000080: 05cf 133d 0c1b 813c 43a7 143d 4f93 343c
00000090: a523 2ebd ee6f 703b e2e2 69bc 5dbf 583d
000000a0: 4104 a4bc a3fc 0c3d 94f7 753b 0fae 493d
000000b0: 1ed0 213d f02b 673c fab5 c13c 78a5 483d
000000c0: 7001 9b3c 84b9 743d 0b94 5bbc 0578 1a3d
000000d0: 43f3 d73c 5ab3 8ebc 7405 dd3c b85a 223c
000000e0: 3b63 7d3d 4888 0cbd 3f2a 243d f172 583d
000000f0: 4686 863d c12a 823d e5e5 34bc 4d5a edbc
00000100: 7679 413d 2fda a63a e6ec b43c 399c 623d
00000110: dc34 1a3d b9bb 4a3d f11b 3e3d b600 9c3d
00000120: 867e ab3c 631d e93c c820 043c c380 443c
00000130: f249 623c 76a8 ad3c a7c4 523d 1b22 dc3c
00000140: cb2c 2b3d 6ab3 273c 1817 893d 5bba 4b3d
00000150: 67a8 cd3c 819e 8a3d d2a8 6d3c 974d 433d
00000160: 8fe5 c63c 7311 2b3d d4e1 f7ba 023d 633c
00000170: 9874 3dbb 085e 6f3d 7e7d 923c 87c4 0a3d
00000180: 8e3e 3e3c 4be0 4d3d ada0 c33c 781c bf3c
00000190: 0a6f 3e3d b9c8 e43c b153 623d 8c3b 2fbb
000001a0: 0631 cb3c 616d 32bc 318b 433c 2d38 2abc
000001b0: 21f4 343d c82c 803c feb1 9c3c ffd0 963d
000001c0: e636 92bc 8909 113d d4fa de3c fb81 413d
000001d0: b292 acba c869 cb3b 5cc0 f4bb 56f0 b0bb
000001e0: 89b0 13bd 5cd8 d73c 7d99 f93b 7d1e 8a3c
000001f0: ddb0 38bb a0d5 c3bb 3d3d d23c fcae 7cbd

action_model._continuous_distribution.log_sigma f4 [1, 2]
-0.062681 -0.15360853
00000000: e55e 80bd 8e4b 1dbe

action_model._continuous_distribution.mu.weight f4 [2, 128]
-0.045735892 0.0017318865 0.0067660552 -0.017934283 0.04442967 -0.07069296 -0.013899419 -0.004531626
0.032672632 -0.0015182741 0.0017678346 -0.05744386 -0.03471747 -0.039843246 -0.024501223 -0.02827713
0.050179094 0.037635084 0.034365103 0.01821254 -0.10705255 0.03486682 0.088933714 -0.015033385
0.010673001 -0.06374591 0.03314366 0.05395431 -0.036018983 -0.06359324 0.06765808 0.05214869
0.052201714 0.0323348 0.075955436 -0.011673193 -0.0002595402 0.0025812995 -0.013762229 0.0773456
-0.010597848 -0.04992663 -0.012750067 -0.06754811 0.036681738 0.020173416 0.035079774 0.05947973
0.038562182 -0.028505385 0.0075678136 0.050857823 -0.051720876 0.07569268 -0.021664102 0.0049481513
-0.07375393 -0.020719642 0.069735445 0.047208197 0.0740072 -0.11215901 -0.014228616 -0.012300186
-0.003529556 -0.03365523 0.005777327 0.0065865912 -0.016630989 0.05882174 0.061219208 0.08835178
0.028783634 -0.017933074 -0.040038228 0.017082818 -0.014441321 0.031448457 -0.033027686 0.06125768
0.04363407 0.005786571 0.07133357 -0.0513906 0.055529226 0.06161727 0.026286887 -0.066394515
0.0186534 0.08144555 0.015122439 0.032669492 0.019992065 -0.05081918 -0.057825193 -0.03741463
0.019970397 -0.066652335 0.06213236 0.0483375 0.066765815 -0.033247113 0.07142414 0.028325899
-0.04221941 -0.010266108 -0.06789567 -0.025864296 0.0789337 0.028347379 -0.018531557 -0.11040802
0.017987877 -0.057678863 0.06293321 -0.066578746 -0.019577695 -0.059279192 -0.042862136 -0.02545028
-0.0075671785 0.04219167 0.008699327 0.03508989 0.00906511 -0.054711673 -0.0070068073 -0.0033374855
0.010726344 -0.09870536 -0.055824 0.0015169658 0.007801729 -0.018094085 0.029032169 0.020015702
-0.028768798 -0.0672406 0.051222734 -0.061513603 -0.087462164 0.016537165 -0.03701541 0.014676446
0.028379636 -0.078124955 -0.0048281755 -0.053692937 -0.056133877 -0.037435938 -0.03872162 0.030257495
-0.008439987 0.046435427 -0.017462889 0.0064445813 0.037125237 -0.0678726 0.022295604 -0.00023364904
-0.0740417 -0.04563984 0.02451214 -0.04005456 -0.0077310815 -0.04757216 0.03862625 -0.010262874
0.017497586 -0.020958703 -0.023655275 -0.02600809 0.0051217456 0.044998053 -0.01420636 -0.025240414
-0.019221764 -0.056037117 -0.0034180277 -0.04702772 -0.01950125 0.017712986 0.07292983 0.054264538
-0.01633981 -0.002894317 0.010705523 0.046795473 0.04861665 -0.020114506 0.045461398 -0.010734331
-0.057785846 0.048712097 -0.040242106 -0.10620815 -0.084043674 -0.0416549 -0.017174082 -0.012122707
0.033788733 -0.034436595 0.013326276 0.027481798 0.05524107 0.046664488 0.10558303 -0.029602043
-0.056798484 0.05728909 0.001686214 0.05793232 -0.039205518 -0.033411253 0.0038928068 0.069324344
-0.05288743 0.011598682 -0.0055885827 -0.005772056 0.033636194 -0.0686873 0.06663575 -0.04815426
-0.02397156 -0.021115677 -0.0045966837 -0.010900907 -0.03718539 0.049067758 0.027621046 0.035828788
0.07638463 -0.014570151 0.026458854 -0.001129343 0.006254037 -0.04007858 -0.046967193 -0.05927796
0.021609448 -0.029497268 -0.04469954 0.064637184 -0.023397699 -0.03180607 0.03699223 -0.019384637
0.010808056 -0.03468586 -0.04215966 0.00812091 0.0068962323 0.025383478 -0.030178536 0.0066222576
00000000: 8f55 3bbd 7800 e33a c9b5 dd3b ebea 92bc
00000010: e3fb 353d 78c7 90bd 64ba 63bc 097e 94bb
00000020: bdd3 053d d300 c7ba b0b6 e73a 414a 6bbd
00000030: e833 0ebd ac32 23bd cab6 c8bc 71a5 e7bc
00000040: 9888 4d3d 3f27 1a3d 6cc2 0c3d 7732 953c
00000050: 5e3e dbbd 83d0 0e3d e122 b63d 964e 76bc
00000060: d0dd 2e3c 378d 82bd a5c1 073d 32ff 5c3d
00000070: a488 13bd 2c3d 82bd 5290 8a3d dd99 553d
00000080: 77d1 553d 7f71 043d 868e 9b3d ec40 3fbc
00000090: e512 88b9 052b 293b f97a 61bc 5f67 9e3d
000000a0: 99a2 2dbc de7f 4cbd a8e5 50bc aa56 8abd
000000b0: 973f 163d b842 a53c cfaf 0f3d 04a1 733d
000000c0: 61f3 1d3d 2084 e9bc 6cfb f73b 4b50 503d
000000d0: 45d9 53bd c404 9b3d ea78 b1bc 1a24 a23b
000000e0: 4d0c 97bd 3dbc a9bc 75d1 8e3d 625d 413d
000000f0: 1691 973d 9fb3 e5bd 241f 69bc b886 49bc
00000100: 2050 67bb 11da 09bd bb4f bd3b 55d4 d73b
00000110: b63d 88bc 11ef 703d fec0 7a3d c7f1 b43d
00000120: a8cb eb3c 62e8 92bc 20ff 23bd 44f1 8b3c
00000130: 4a9b 6cbc 19d0 003d 0a48 07bd 55e9 7a3d
00000140: a3b9 323d 479d bd3b 5617 923d f37e 52bd
00000150: 9d72 633d 6462 7c3d 9957 d73c d9f9 87bd
00000160: 04cf 983c edcc a63d 1bc4 773c 72d0 053d
00000170: 66c6 a33c c627 50bd 1cda 6cbd 1540 19bd
00000180: f598 a33c 0581 88bd 807e 7e3d 8bfd 453d
00000190: 84bc 883d 202e 08bd d246 923d b70b e83c
000001a0: 43ee 2cbd 2e33 28bc e30c 8bbd 5ce1 d3bc
000001b0: fea7 a13d c338 e83c 7ecf 97bc 9a1d e2bd
000001c0: 505b 933c ac40 6cbd 20e3 803d 705a 88bd
000001d0: 6761 a0bc bdce 72bd 3590 2fbd 1b7d d0bc
000001e0: 18f6 f7bb 2cd1 2c3d 9f87 0e3c 6bba 0f3d
000001f0: d485 143c 5919 60bd 5c99 e5bb b7b9 5abb
00000200: 8cbd 2f3c 0926 cabd b5a7 64bd edd4 c63a
00000210: a5a5 ff3b 0c3a 94bc dfd4 ed3c f8f7 a33c
00000220: 8bac ebbc 71b5 89bd eece 513d b0f5 7bbd
00000230: 5d1f b3bd f378 873c 789d 17bd 7a75 703c
00000240: 697c e83c faff 9fbd ac35 9ebb 20ed 5bbd
00000250: a3ec 65bd 6d56 19bd 909a 1ebd 91de f73c
00000260: df47 0abc 1333 3e3d 550e 8fbc 112d d33b
00000270: a210 183d ca00 8bbd 45a5 b63c b0ff 74b9
00000280: 2da3 97bd d7f0 3abd afcd c83c 4010 24bd
00000290: 0355 fdbb 06db 42bd 8f36 1e3d 9d25 28bc
000002a0: 1957 8f3c 96b1 abbc b5c8 c1bc eb0e d5bc
000002b0: 51d4 a73b e14f 383d cbc1 68bc fcc4 cebc
000002c0: f676 9dbc 2d87 65bd fd00 60bb 23a0 40bd
000002d0: 16c1 9fbc d31a 913c 3c5c 953d 7e44 5e3d
000002e0: 11db 85bc 95ae 3dbb 3866 2f3c 9cac 3f3d
000002f0: 4122 473d 2dc7 a4bc bb35 3a3d 0cdf 2fbc
00000300: dab0 6cbd 5686 473d e8d4 24bd a983 d9bd
00000310: 171f acbd 549e 2abd a9b0 8cbc 529e 46bc
00000320: 0e66 0a3d 630d 0dbd 7456 5a3c 8221 e13c
00000330: 7644 623d 4323 3f3d ea3b d83d fc7f f2bc
00000340: 87a5 68bd f7a7 6a3d f403 dd3a 714a 6d3d
00000350: f795 20bd 3dda 08bd 761e 7f3b ecf9 8d3d
00000360: 7da0 58bd 6608 3e3c 6e20 b7bb 8423 bdbb
00000370: 1bc6 093d edab 8cbd 5378 883d 673d 45bd
00000380: 0160 c4bc c9fa acbc c79f 96bb b899 32bc
00000390: b54f 18bd 46fb 483d 8845 e23c 35c1 123d
000003a0: 8b6f 9c3d a5b7 6ebc 3dc0 d83c 7706 94ba
000003b0: aaee cc3b 7029 24bd ac60 40bd 72cd 72bd
000003c0: 4c06 b13c 41a4 f1bc dd16 37bd 8060 843d
000003d0: 88ac bfbc 1547 02bd 2a85 173d 88cc 9ebc
000003e0: 4614 313c c312 0ebd 9caf 2cbd 910d 053c
000003f0: caf9 e13b 03f1 cf3c fa38 f7bc 86ff d83b

action_model._continuous_distribution.mu.bias f4 [2]
0.018747304 -0.012496592
00000000: f293 993c 81be 4cbc
